{"format": "graph-model", "generatedBy": "2.11.0", "convertedBy": "TensorFlow.js Converter v4.2.0", "signature": {"outputs": {"Identity": {"name": "Identity"}, "Identity_1": {"name": "Identity_1"}}}, "modelTopology": {"node": [{"name": "ConstantFolding/model/tf.math.truediv/truediv_recip", "op": "Const", "attr": {"value": {"tensor": {"dtype": "DT_FLOAT", "tensorShape": {}}}, "dtype": {"type": "DT_FLOAT"}}}, {"name": "ConstantFolding/model/tf.math.truediv_1/truediv_recip", "op": "Const", "attr": {"dtype": {"type": "DT_FLOAT"}, "value": {"tensor": {"dtype": "DT_FLOAT", "tensorShape": {}}}}}, {"name": "ConstantFolding/model/tf.math.truediv_2/truediv_recip", "op": "Const", "attr": {"dtype": {"type": "DT_FLOAT"}, "value": {"tensor": {"dtype": "DT_FLOAT", "tensorShape": {}}}}}, {"name": "model/tf.split/split/split_dim", "op": "Const", "attr": {"dtype": {"type": "DT_INT32"}, "value": {"tensor": {"dtype": "DT_INT32", "tensorShape": {}}}}}, {"name": "model/tf.__operators__.getitem/strided_slice/stack", "op": "Const", "attr": {"value": {"tensor": {"dtype": "DT_INT32", "tensorShape": {"dim": [{"size": "2"}]}}}, "dtype": {"type": "DT_INT32"}}}, {"name": "model/tf.__operators__.getitem/strided_slice/stack_1", "op": "Const", "attr": {"dtype": {"type": "DT_INT32"}, "value": {"tensor": {"dtype": "DT_INT32", "tensorShape": {"dim": [{"size": "2"}]}}}}}, {"name": "model/tf.__operators__.getitem/strided_slice/stack_2", "op": "Const", "attr": {"dtype": {"type": "DT_INT32"}, "value": {"tensor": {"dtype": "DT_INT32", "tensorShape": {"dim": [{"size": "2"}]}}}}}, {"name": "ConstantFolding/model/tf.math.truediv_3/truediv_recip", "op": "Const", "attr": {"dtype": {"type": "DT_FLOAT"}, "value": {"tensor": {"dtype": "DT_FLOAT", "tensorShape": {}}}}}, {"name": "model/tf.concat/concat/axis", "op": "Const", "attr": {"dtype": {"type": "DT_INT32"}, "value": {"tensor": {"dtype": "DT_INT32", "tensorShape": {}}}}}, {"name": "model/tf.__operators__.getitem_1/strided_slice/stack", "op": "Const", "attr": {"value": {"tensor": {"dtype": "DT_INT32", "tensorShape": {"dim": [{"size": "3"}]}}}, "dtype": {"type": "DT_INT32"}}}, {"name": "model/tf.__operators__.getitem_1/strided_slice/stack_1", "op": "Const", "attr": {"dtype": {"type": "DT_INT32"}, "value": {"tensor": {"dtype": "DT_INT32", "tensorShape": {"dim": [{"size": "3"}]}}}}}, {"name": "model/tf.__operators__.getitem_1/strided_slice/stack_2", "op": "Const", "attr": {"value": {"tensor": {"dtype": "DT_INT32", "tensorShape": {"dim": [{"size": "3"}]}}}, "dtype": {"type": "DT_INT32"}}}, {"name": "model/tf_detect/strided_slice_3/stack", "op": "Const", "attr": {"value": {"tensor": {"dtype": "DT_INT32", "tensorShape": {"dim": [{"size": "2"}]}}}, "dtype": {"type": "DT_INT32"}}}, {"name": "model/tf_detect/strided_slice_3/stack_1", "op": "Const", "attr": {"dtype": {"type": "DT_INT32"}, "value": {"tensor": {"dtype": "DT_INT32", "tensorShape": {"dim": [{"size": "2"}]}}}}}, {"name": "model/tf_detect/strided_slice_3/stack_2", "op": "Const", "attr": {"value": {"tensor": {"dtype": "DT_INT32", "tensorShape": {"dim": [{"size": "2"}]}}}, "dtype": {"type": "DT_INT32"}}}, {"name": "model/tf_detect/mul_2/y", "op": "Const", "attr": {"value": {"tensor": {"dtype": "DT_FLOAT", "tensorShape": {}}}, "dtype": {"type": "DT_FLOAT"}}}, {"name": "model/tf_detect/sub", "op": "Const", "attr": {"dtype": {"type": "DT_FLOAT"}, "value": {"tensor": {"dtype": "DT_FLOAT", "tensorShape": {"dim": [{"size": "1"}, {"size": "1600"}, {"size": "1"}, {"size": "2"}]}}}}}, {"name": "model/tf_detect/mul_3", "op": "Const", "attr": {"value": {"tensor": {"dtype": "DT_FLOAT", "tensorShape": {"dim": [{"size": "1"}, {"size": "2"}]}}}, "dtype": {"type": "DT_FLOAT"}}}, {"name": "model/tf_detect/strided_slice_5/stack", "op": "Const", "attr": {"value": {"tensor": {"dtype": "DT_INT32", "tensorShape": {"dim": [{"size": "2"}]}}}, "dtype": {"type": "DT_INT32"}}}, {"name": "model/tf_detect/strided_slice_5/stack_1", "op": "Const", "attr": {"dtype": {"type": "DT_INT32"}, "value": {"tensor": {"dtype": "DT_INT32", "tensorShape": {"dim": [{"size": "2"}]}}}}}, {"name": "model/tf_detect/strided_slice_5/stack_2", "op": "Const", "attr": {"dtype": {"type": "DT_INT32"}, "value": {"tensor": {"dtype": "DT_INT32", "tensorShape": {"dim": [{"size": "2"}]}}}}}, {"name": "model/tf_detect/mul_4", "op": "Const", "attr": {"value": {"tensor": {"dtype": "DT_FLOAT", "tensorShape": {"dim": [{"size": "1"}, {"size": "1"}, {"size": "3"}, {"size": "2"}]}}}, "dtype": {"type": "DT_FLOAT"}}}, {"name": "model/tf_detect/strided_slice_6/stack", "op": "Const", "attr": {"value": {"tensor": {"dtype": "DT_INT32", "tensorShape": {"dim": [{"size": "2"}]}}}, "dtype": {"type": "DT_INT32"}}}, {"name": "model/tf_detect/strided_slice_6/stack_1", "op": "Const", "attr": {"dtype": {"type": "DT_INT32"}, "value": {"tensor": {"dtype": "DT_INT32", "tensorShape": {"dim": [{"size": "2"}]}}}}}, {"name": "model/tf_detect/strided_slice_6/stack_2", "op": "Const", "attr": {"dtype": {"type": "DT_INT32"}, "value": {"tensor": {"dtype": "DT_INT32", "tensorShape": {"dim": [{"size": "2"}]}}}}}, {"name": "model/tf_detect/tf_conv2d/conv2d_57/Conv2D/ReadVariableOp", "op": "Const", "attr": {"value": {"tensor": {"dtype": "DT_FLOAT", "tensorShape": {"dim": [{"size": "1"}, {"size": "1"}, {"size": "50"}, {"size": "99"}]}}}, "dtype": {"type": "DT_FLOAT"}}}, {"name": "model/tf_detect/tf_conv2d/conv2d_57/BiasAdd/ReadVariableOp", "op": "Const", "attr": {"value": {"tensor": {"dtype": "DT_FLOAT", "tensorShape": {"dim": [{"size": "99"}]}}}, "dtype": {"type": "DT_FLOAT"}}}, {"name": "model/tf_detect/Reshape/shape_1", "op": "Const", "attr": {"value": {"tensor": {"dtype": "DT_INT32", "tensorShape": {"dim": [{"size": "4"}]}}}, "dtype": {"type": "DT_INT32"}}}, {"name": "model/tf_detect/strided_slice_7/stack", "op": "Const", "attr": {"dtype": {"type": "DT_INT32"}, "value": {"tensor": {"dtype": "DT_INT32", "tensorShape": {"dim": [{"size": "2"}]}}}}}, {"name": "model/tf_detect/strided_slice_7/stack_1", "op": "Const", "attr": {"dtype": {"type": "DT_INT32"}, "value": {"tensor": {"dtype": "DT_INT32", "tensorShape": {"dim": [{"size": "2"}]}}}}}, {"name": "model/tf_detect/strided_slice_7/stack_2", "op": "Const", "attr": {"dtype": {"type": "DT_INT32"}, "value": {"tensor": {"dtype": "DT_INT32", "tensorShape": {"dim": [{"size": "2"}]}}}}}, {"name": "model/tf_detect/concat/axis", "op": "Const", "attr": {"value": {"tensor": {"dtype": "DT_INT32", "tensorShape": {}}}, "dtype": {"type": "DT_INT32"}}}, {"name": "model/tf_detect/Reshape_1/shape_1", "op": "Const", "attr": {"dtype": {"type": "DT_INT32"}, "value": {"tensor": {"dtype": "DT_INT32", "tensorShape": {"dim": [{"size": "3"}]}}}}}, {"name": "model/tf_detect/strided_slice_11/stack", "op": "Const", "attr": {"dtype": {"type": "DT_INT32"}, "value": {"tensor": {"dtype": "DT_INT32", "tensorShape": {"dim": [{"size": "2"}]}}}}}, {"name": "model/tf_detect/strided_slice_11/stack_1", "op": "Const", "attr": {"dtype": {"type": "DT_INT32"}, "value": {"tensor": {"dtype": "DT_INT32", "tensorShape": {"dim": [{"size": "2"}]}}}}}, {"name": "model/tf_detect/strided_slice_11/stack_2", "op": "Const", "attr": {"value": {"tensor": {"dtype": "DT_INT32", "tensorShape": {"dim": [{"size": "2"}]}}}, "dtype": {"type": "DT_INT32"}}}, {"name": "model/tf_detect/mul_9/y", "op": "Const", "attr": {"value": {"tensor": {"dtype": "DT_FLOAT", "tensorShape": {}}}, "dtype": {"type": "DT_FLOAT"}}}, {"name": "model/tf_detect/sub_1", "op": "Const", "attr": {"value": {"tensor": {"dtype": "DT_FLOAT", "tensorShape": {"dim": [{"size": "1"}, {"size": "400"}, {"size": "1"}, {"size": "2"}]}}}, "dtype": {"type": "DT_FLOAT"}}}, {"name": "model/tf_detect/mul_10", "op": "Const", "attr": {"value": {"tensor": {"dtype": "DT_FLOAT", "tensorShape": {"dim": [{"size": "1"}, {"size": "2"}]}}}, "dtype": {"type": "DT_FLOAT"}}}, {"name": "model/tf_detect/strided_slice_13/stack", "op": "Const", "attr": {"value": {"tensor": {"dtype": "DT_INT32", "tensorShape": {"dim": [{"size": "2"}]}}}, "dtype": {"type": "DT_INT32"}}}, {"name": "model/tf_detect/strided_slice_13/stack_1", "op": "Const", "attr": {"value": {"tensor": {"dtype": "DT_INT32", "tensorShape": {"dim": [{"size": "2"}]}}}, "dtype": {"type": "DT_INT32"}}}, {"name": "model/tf_detect/strided_slice_13/stack_2", "op": "Const", "attr": {"value": {"tensor": {"dtype": "DT_INT32", "tensorShape": {"dim": [{"size": "2"}]}}}, "dtype": {"type": "DT_INT32"}}}, {"name": "model/tf_detect/mul_11", "op": "Const", "attr": {"value": {"tensor": {"dtype": "DT_FLOAT", "tensorShape": {"dim": [{"size": "1"}, {"size": "1"}, {"size": "3"}, {"size": "2"}]}}}, "dtype": {"type": "DT_FLOAT"}}}, {"name": "model/tf_detect/strided_slice_14/stack", "op": "Const", "attr": {"dtype": {"type": "DT_INT32"}, "value": {"tensor": {"dtype": "DT_INT32", "tensorShape": {"dim": [{"size": "2"}]}}}}}, {"name": "model/tf_detect/strided_slice_14/stack_1", "op": "Const", "attr": {"value": {"tensor": {"dtype": "DT_INT32", "tensorShape": {"dim": [{"size": "2"}]}}}, "dtype": {"type": "DT_INT32"}}}, {"name": "model/tf_detect/strided_slice_14/stack_2", "op": "Const", "attr": {"value": {"tensor": {"dtype": "DT_INT32", "tensorShape": {"dim": [{"size": "2"}]}}}, "dtype": {"type": "DT_INT32"}}}, {"name": "model/tf_detect/tf_conv2d_1/conv2d_58/Conv2D/ReadVariableOp", "op": "Const", "attr": {"dtype": {"type": "DT_FLOAT"}, "value": {"tensor": {"dtype": "DT_FLOAT", "tensorShape": {"dim": [{"size": "1"}, {"size": "1"}, {"size": "96"}, {"size": "99"}]}}}}}, {"name": "model/tf_detect/tf_conv2d_1/conv2d_58/BiasAdd/ReadVariableOp", "op": "Const", "attr": {"value": {"tensor": {"dtype": "DT_FLOAT", "tensorShape": {"dim": [{"size": "99"}]}}}, "dtype": {"type": "DT_FLOAT"}}}, {"name": "model/tf_detect/Reshape_2/shape_1", "op": "Const", "attr": {"value": {"tensor": {"dtype": "DT_INT32", "tensorShape": {"dim": [{"size": "4"}]}}}, "dtype": {"type": "DT_INT32"}}}, {"name": "model/tf_detect/strided_slice_15/stack", "op": "Const", "attr": {"value": {"tensor": {"dtype": "DT_INT32", "tensorShape": {"dim": [{"size": "2"}]}}}, "dtype": {"type": "DT_INT32"}}}, {"name": "model/tf_detect/strided_slice_15/stack_1", "op": "Const", "attr": {"dtype": {"type": "DT_INT32"}, "value": {"tensor": {"dtype": "DT_INT32", "tensorShape": {"dim": [{"size": "2"}]}}}}}, {"name": "model/tf_detect/strided_slice_15/stack_2", "op": "Const", "attr": {"dtype": {"type": "DT_INT32"}, "value": {"tensor": {"dtype": "DT_INT32", "tensorShape": {"dim": [{"size": "2"}]}}}}}, {"name": "model/tf_detect/concat_1/axis", "op": "Const", "attr": {"value": {"tensor": {"dtype": "DT_INT32", "tensorShape": {}}}, "dtype": {"type": "DT_INT32"}}}, {"name": "model/tf_detect/Reshape_3/shape_1", "op": "Const", "attr": {"value": {"tensor": {"dtype": "DT_INT32", "tensorShape": {"dim": [{"size": "3"}]}}}, "dtype": {"type": "DT_INT32"}}}, {"name": "model/tf_detect/strided_slice_19/stack", "op": "Const", "attr": {"value": {"tensor": {"dtype": "DT_INT32", "tensorShape": {"dim": [{"size": "2"}]}}}, "dtype": {"type": "DT_INT32"}}}, {"name": "model/tf_detect/strided_slice_19/stack_1", "op": "Const", "attr": {"value": {"tensor": {"dtype": "DT_INT32", "tensorShape": {"dim": [{"size": "2"}]}}}, "dtype": {"type": "DT_INT32"}}}, {"name": "model/tf_detect/strided_slice_19/stack_2", "op": "Const", "attr": {"dtype": {"type": "DT_INT32"}, "value": {"tensor": {"dtype": "DT_INT32", "tensorShape": {"dim": [{"size": "2"}]}}}}}, {"name": "model/tf_detect/mul_16/y", "op": "Const", "attr": {"value": {"tensor": {"dtype": "DT_FLOAT", "tensorShape": {}}}, "dtype": {"type": "DT_FLOAT"}}}, {"name": "model/tf_detect/sub_2", "op": "Const", "attr": {"value": {"tensor": {"dtype": "DT_FLOAT", "tensorShape": {"dim": [{"size": "1"}, {"size": "100"}, {"size": "1"}, {"size": "2"}]}}}, "dtype": {"type": "DT_FLOAT"}}}, {"name": "model/tf_detect/mul_17", "op": "Const", "attr": {"value": {"tensor": {"dtype": "DT_FLOAT", "tensorShape": {"dim": [{"size": "1"}, {"size": "2"}]}}}, "dtype": {"type": "DT_FLOAT"}}}, {"name": "model/tf_detect/strided_slice_21/stack", "op": "Const", "attr": {"value": {"tensor": {"dtype": "DT_INT32", "tensorShape": {"dim": [{"size": "2"}]}}}, "dtype": {"type": "DT_INT32"}}}, {"name": "model/tf_detect/strided_slice_21/stack_1", "op": "Const", "attr": {"value": {"tensor": {"dtype": "DT_INT32", "tensorShape": {"dim": [{"size": "2"}]}}}, "dtype": {"type": "DT_INT32"}}}, {"name": "model/tf_detect/strided_slice_21/stack_2", "op": "Const", "attr": {"value": {"tensor": {"dtype": "DT_INT32", "tensorShape": {"dim": [{"size": "2"}]}}}, "dtype": {"type": "DT_INT32"}}}, {"name": "model/tf_detect/mul_18", "op": "Const", "attr": {"value": {"tensor": {"dtype": "DT_FLOAT", "tensorShape": {"dim": [{"size": "1"}, {"size": "1"}, {"size": "3"}, {"size": "2"}]}}}, "dtype": {"type": "DT_FLOAT"}}}, {"name": "model/tf_detect/strided_slice_22/stack", "op": "Const", "attr": {"value": {"tensor": {"dtype": "DT_INT32", "tensorShape": {"dim": [{"size": "2"}]}}}, "dtype": {"type": "DT_INT32"}}}, {"name": "model/tf_detect/strided_slice_22/stack_1", "op": "Const", "attr": {"value": {"tensor": {"dtype": "DT_INT32", "tensorShape": {"dim": [{"size": "2"}]}}}, "dtype": {"type": "DT_INT32"}}}, {"name": "model/tf_detect/strided_slice_22/stack_2", "op": "Const", "attr": {"value": {"tensor": {"dtype": "DT_INT32", "tensorShape": {"dim": [{"size": "2"}]}}}, "dtype": {"type": "DT_INT32"}}}, {"name": "model/tfc3_7/tf_conv_52/conv2d_52/Conv2D/ReadVariableOp", "op": "Const", "attr": {"value": {"tensor": {"dtype": "DT_FLOAT", "tensorShape": {"dim": [{"size": "1"}, {"size": "1"}, {"size": "246"}, {"size": "122"}]}}}, "dtype": {"type": "DT_FLOAT"}}}, {"name": "model/tfc3_7/tf_conv_52/conv2d_52/BiasAdd/ReadVariableOp", "op": "Const", "attr": {"value": {"tensor": {"dtype": "DT_FLOAT", "tensorShape": {"dim": [{"size": "122"}]}}}, "dtype": {"type": "DT_FLOAT"}}}, {"name": "model/tfc3_7/sequential_14/tf_bottleneck_10/tf_conv_55/conv2d_55/Conv2D/ReadVariableOp", "op": "Const", "attr": {"value": {"tensor": {"dtype": "DT_FLOAT", "tensorShape": {"dim": [{"size": "1"}, {"size": "1"}, {"size": "122"}, {"size": "128"}]}}}, "dtype": {"type": "DT_FLOAT"}}}, {"name": "model/tfc3_7/sequential_14/tf_bottleneck_10/tf_conv_55/conv2d_55/BiasAdd/ReadVariableOp", "op": "Const", "attr": {"dtype": {"type": "DT_FLOAT"}, "value": {"tensor": {"dtype": "DT_FLOAT", "tensorShape": {"dim": [{"size": "128"}]}}}}}, {"name": "model/tfc3_7/sequential_14/tf_bottleneck_10/tf_conv_56/conv2d_56/Conv2D/ReadVariableOp", "op": "Const", "attr": {"dtype": {"type": "DT_FLOAT"}, "value": {"tensor": {"dtype": "DT_FLOAT", "tensorShape": {"dim": [{"size": "3"}, {"size": "3"}, {"size": "128"}, {"size": "122"}]}}}}}, {"name": "model/tfc3_7/sequential_14/tf_bottleneck_10/tf_conv_56/conv2d_56/BiasAdd/ReadVariableOp", "op": "Const", "attr": {"dtype": {"type": "DT_FLOAT"}, "value": {"tensor": {"dtype": "DT_FLOAT", "tensorShape": {"dim": [{"size": "122"}]}}}}}, {"name": "model/tfc3_6/tf_conv_46/conv2d_46/Conv2D/ReadVariableOp", "op": "Const", "attr": {"dtype": {"type": "DT_FLOAT"}, "value": {"tensor": {"dtype": "DT_FLOAT", "tensorShape": {"dim": [{"size": "1"}, {"size": "1"}, {"size": "127"}, {"size": "63"}]}}}}}, {"name": "model/tfc3_6/tf_conv_46/conv2d_46/BiasAdd/ReadVariableOp", "op": "Const", "attr": {"dtype": {"type": "DT_FLOAT"}, "value": {"tensor": {"dtype": "DT_FLOAT", "tensorShape": {"dim": [{"size": "63"}]}}}}}, {"name": "model/tfc3_6/sequential_12/tf_bottleneck_9/tf_conv_49/conv2d_49/Conv2D/ReadVariableOp", "op": "Const", "attr": {"dtype": {"type": "DT_FLOAT"}, "value": {"tensor": {"dtype": "DT_FLOAT", "tensorShape": {"dim": [{"size": "1"}, {"size": "1"}, {"size": "63"}, {"size": "64"}]}}}}}, {"name": "model/tfc3_6/sequential_12/tf_bottleneck_9/tf_conv_49/conv2d_49/BiasAdd/ReadVariableOp", "op": "Const", "attr": {"dtype": {"type": "DT_FLOAT"}, "value": {"tensor": {"dtype": "DT_FLOAT", "tensorShape": {"dim": [{"size": "64"}]}}}}}, {"name": "model/tfc3_6/sequential_12/tf_bottleneck_9/tf_conv_50/conv2d_50/Conv2D/ReadVariableOp", "op": "Const", "attr": {"dtype": {"type": "DT_FLOAT"}, "value": {"tensor": {"dtype": "DT_FLOAT", "tensorShape": {"dim": [{"size": "3"}, {"size": "3"}, {"size": "64"}, {"size": "63"}]}}}}}, {"name": "model/tfc3_6/sequential_12/tf_bottleneck_9/tf_conv_50/conv2d_50/BiasAdd/ReadVariableOp", "op": "Const", "attr": {"dtype": {"type": "DT_FLOAT"}, "value": {"tensor": {"dtype": "DT_FLOAT", "tensorShape": {"dim": [{"size": "63"}]}}}}}, {"name": "model/tfc3_5/tf_conv_40/conv2d_40/Conv2D/ReadVariableOp", "op": "Const", "attr": {"value": {"tensor": {"dtype": "DT_FLOAT", "tensorShape": {"dim": [{"size": "1"}, {"size": "1"}, {"size": "124"}, {"size": "31"}]}}}, "dtype": {"type": "DT_FLOAT"}}}, {"name": "model/tfc3_5/tf_conv_40/conv2d_40/BiasAdd/ReadVariableOp", "op": "Const", "attr": {"value": {"tensor": {"dtype": "DT_FLOAT", "tensorShape": {"dim": [{"size": "31"}]}}}, "dtype": {"type": "DT_FLOAT"}}}, {"name": "model/tfc3_5/sequential_10/tf_bottleneck_8/tf_conv_43/conv2d_43/Conv2D/ReadVariableOp", "op": "Const", "attr": {"value": {"tensor": {"dtype": "DT_FLOAT", "tensorShape": {"dim": [{"size": "1"}, {"size": "1"}, {"size": "31"}, {"size": "32"}]}}}, "dtype": {"type": "DT_FLOAT"}}}, {"name": "model/tfc3_5/sequential_10/tf_bottleneck_8/tf_conv_43/conv2d_43/BiasAdd/ReadVariableOp", "op": "Const", "attr": {"value": {"tensor": {"dtype": "DT_FLOAT", "tensorShape": {"dim": [{"size": "32"}]}}}, "dtype": {"type": "DT_FLOAT"}}}, {"name": "model/tfc3_5/sequential_10/tf_bottleneck_8/tf_conv_44/conv2d_44/Conv2D/ReadVariableOp", "op": "Const", "attr": {"value": {"tensor": {"dtype": "DT_FLOAT", "tensorShape": {"dim": [{"size": "3"}, {"size": "3"}, {"size": "32"}, {"size": "31"}]}}}, "dtype": {"type": "DT_FLOAT"}}}, {"name": "model/tfc3_5/sequential_10/tf_bottleneck_8/tf_conv_44/conv2d_44/BiasAdd/ReadVariableOp", "op": "Const", "attr": {"dtype": {"type": "DT_FLOAT"}, "value": {"tensor": {"dtype": "DT_FLOAT", "tensorShape": {"dim": [{"size": "31"}]}}}}}, {"name": "model/tf_upsample_1/resize/size", "op": "Const", "attr": {"value": {"tensor": {"dtype": "DT_INT32", "tensorShape": {"dim": [{"size": "2"}]}}}, "dtype": {"type": "DT_INT32"}}}, {"name": "model/tf_concat_1/concat/axis", "op": "Const", "attr": {"value": {"tensor": {"dtype": "DT_INT32", "tensorShape": {}}}, "dtype": {"type": "DT_INT32"}}}, {"name": "model/tfc3_5/tf_conv_41/conv2d_41/Conv2D/ReadVariableOp", "op": "Const", "attr": {"dtype": {"type": "DT_FLOAT"}, "value": {"tensor": {"dtype": "DT_FLOAT", "tensorShape": {"dim": [{"size": "1"}, {"size": "1"}, {"size": "124"}, {"size": "32"}]}}}}}, {"name": "model/tfc3_5/tf_conv_41/conv2d_41/BiasAdd/ReadVariableOp", "op": "Const", "attr": {"dtype": {"type": "DT_FLOAT"}, "value": {"tensor": {"dtype": "DT_FLOAT", "tensorShape": {"dim": [{"size": "32"}]}}}}}, {"name": "model/tfc3_5/concat/axis", "op": "Const", "attr": {"dtype": {"type": "DT_INT32"}, "value": {"tensor": {"dtype": "DT_INT32", "tensorShape": {}}}}}, {"name": "model/tfc3_5/tf_conv_42/conv2d_42/Conv2D/ReadVariableOp", "op": "Const", "attr": {"value": {"tensor": {"dtype": "DT_FLOAT", "tensorShape": {"dim": [{"size": "1"}, {"size": "1"}, {"size": "63"}, {"size": "50"}]}}}, "dtype": {"type": "DT_FLOAT"}}}, {"name": "model/tfc3_5/tf_conv_42/conv2d_42/BiasAdd/ReadVariableOp", "op": "Const", "attr": {"dtype": {"type": "DT_FLOAT"}, "value": {"tensor": {"dtype": "DT_FLOAT", "tensorShape": {"dim": [{"size": "50"}]}}}}}, {"name": "model/tf_conv_45/sequential_11/tf_pad_5/Pad/paddings", "op": "Const", "attr": {"value": {"tensor": {"dtype": "DT_INT32", "tensorShape": {"dim": [{"size": "4"}, {"size": "2"}]}}}, "dtype": {"type": "DT_INT32"}}}, {"name": "model/tf_conv_45/sequential_11/conv2d_45/Conv2D/ReadVariableOp", "op": "Const", "attr": {"value": {"tensor": {"dtype": "DT_FLOAT", "tensorShape": {"dim": [{"size": "3"}, {"size": "3"}, {"size": "50"}, {"size": "63"}]}}}, "dtype": {"type": "DT_FLOAT"}}}, {"name": "model/tf_conv_45/sequential_11/conv2d_45/BiasAdd/ReadVariableOp", "op": "Const", "attr": {"dtype": {"type": "DT_FLOAT"}, "value": {"tensor": {"dtype": "DT_FLOAT", "tensorShape": {"dim": [{"size": "63"}]}}}}}, {"name": "model/tfc3_4/tf_conv_34/conv2d_34/Conv2D/ReadVariableOp", "op": "Const", "attr": {"value": {"tensor": {"dtype": "DT_FLOAT", "tensorShape": {"dim": [{"size": "1"}, {"size": "1"}, {"size": "253"}, {"size": "64"}]}}}, "dtype": {"type": "DT_FLOAT"}}}, {"name": "model/tfc3_4/tf_conv_34/conv2d_34/BiasAdd/ReadVariableOp", "op": "Const", "attr": {"value": {"tensor": {"dtype": "DT_FLOAT", "tensorShape": {"dim": [{"size": "64"}]}}}, "dtype": {"type": "DT_FLOAT"}}}, {"name": "model/tfc3_4/sequential_9/tf_bottleneck_7/tf_conv_37/conv2d_37/Conv2D/ReadVariableOp", "op": "Const", "attr": {"dtype": {"type": "DT_FLOAT"}, "value": {"tensor": {"dtype": "DT_FLOAT", "tensorShape": {"dim": [{"size": "1"}, {"size": "1"}, {"size": "64"}, {"size": "64"}]}}}}}, {"name": "model/tfc3_4/sequential_9/tf_bottleneck_7/tf_conv_37/conv2d_37/BiasAdd/ReadVariableOp", "op": "Const", "attr": {"value": {"tensor": {"dtype": "DT_FLOAT", "tensorShape": {"dim": [{"size": "64"}]}}}, "dtype": {"type": "DT_FLOAT"}}}, {"name": "model/tfc3_4/sequential_9/tf_bottleneck_7/tf_conv_38/conv2d_38/Conv2D/ReadVariableOp", "op": "Const", "attr": {"dtype": {"type": "DT_FLOAT"}, "value": {"tensor": {"dtype": "DT_FLOAT", "tensorShape": {"dim": [{"size": "3"}, {"size": "3"}, {"size": "64"}, {"size": "64"}]}}}}}, {"name": "model/tfc3_4/sequential_9/tf_bottleneck_7/tf_conv_38/conv2d_38/BiasAdd/ReadVariableOp", "op": "Const", "attr": {"dtype": {"type": "DT_FLOAT"}, "value": {"tensor": {"dtype": "DT_FLOAT", "tensorShape": {"dim": [{"size": "64"}]}}}}}, {"name": "model/tf_upsample/resize/size", "op": "Const", "attr": {"value": {"tensor": {"dtype": "DT_INT32", "tensorShape": {"dim": [{"size": "2"}]}}}, "dtype": {"type": "DT_INT32"}}}, {"name": "model/tf_concat/concat/axis", "op": "Const", "attr": {"dtype": {"type": "DT_INT32"}, "value": {"tensor": {"dtype": "DT_INT32", "tensorShape": {}}}}}, {"name": "model/tfc3_4/tf_conv_35/conv2d_35/Conv2D/ReadVariableOp", "op": "Const", "attr": {"dtype": {"type": "DT_FLOAT"}, "value": {"tensor": {"dtype": "DT_FLOAT", "tensorShape": {"dim": [{"size": "1"}, {"size": "1"}, {"size": "253"}, {"size": "64"}]}}}}}, {"name": "model/tfc3_4/tf_conv_35/conv2d_35/BiasAdd/ReadVariableOp", "op": "Const", "attr": {"dtype": {"type": "DT_FLOAT"}, "value": {"tensor": {"dtype": "DT_FLOAT", "tensorShape": {"dim": [{"size": "64"}]}}}}}, {"name": "model/tfc3_4/concat/axis", "op": "Const", "attr": {"value": {"tensor": {"dtype": "DT_INT32", "tensorShape": {}}}, "dtype": {"type": "DT_INT32"}}}, {"name": "model/tfc3_4/tf_conv_36/conv2d_36/Conv2D/ReadVariableOp", "op": "Const", "attr": {"dtype": {"type": "DT_FLOAT"}, "value": {"tensor": {"dtype": "DT_FLOAT", "tensorShape": {"dim": [{"size": "1"}, {"size": "1"}, {"size": "128"}, {"size": "120"}]}}}}}, {"name": "model/tfc3_4/tf_conv_36/conv2d_36/BiasAdd/ReadVariableOp", "op": "Const", "attr": {"value": {"tensor": {"dtype": "DT_FLOAT", "tensorShape": {"dim": [{"size": "120"}]}}}, "dtype": {"type": "DT_FLOAT"}}}, {"name": "model/tf_conv_39/conv2d_39/Conv2D/ReadVariableOp", "op": "Const", "attr": {"dtype": {"type": "DT_FLOAT"}, "value": {"tensor": {"dtype": "DT_FLOAT", "tensorShape": {"dim": [{"size": "1"}, {"size": "1"}, {"size": "120"}, {"size": "64"}]}}}}}, {"name": "model/tf_conv_39/conv2d_39/BiasAdd/ReadVariableOp", "op": "Const", "attr": {"dtype": {"type": "DT_FLOAT"}, "value": {"tensor": {"dtype": "DT_FLOAT", "tensorShape": {"dim": [{"size": "64"}]}}}}}, {"name": "model/tf_concat_2/concat/axis", "op": "Const", "attr": {"value": {"tensor": {"dtype": "DT_INT32", "tensorShape": {}}}, "dtype": {"type": "DT_INT32"}}}, {"name": "model/tfc3_6/tf_conv_47/conv2d_47/Conv2D/ReadVariableOp", "op": "Const", "attr": {"value": {"tensor": {"dtype": "DT_FLOAT", "tensorShape": {"dim": [{"size": "1"}, {"size": "1"}, {"size": "127"}, {"size": "60"}]}}}, "dtype": {"type": "DT_FLOAT"}}}, {"name": "model/tfc3_6/tf_conv_47/conv2d_47/BiasAdd/ReadVariableOp", "op": "Const", "attr": {"value": {"tensor": {"dtype": "DT_FLOAT", "tensorShape": {"dim": [{"size": "60"}]}}}, "dtype": {"type": "DT_FLOAT"}}}, {"name": "model/tfc3_6/concat/axis", "op": "Const", "attr": {"dtype": {"type": "DT_INT32"}, "value": {"tensor": {"dtype": "DT_INT32", "tensorShape": {}}}}}, {"name": "model/tfc3_6/tf_conv_48/conv2d_48/Conv2D/ReadVariableOp", "op": "Const", "attr": {"dtype": {"type": "DT_FLOAT"}, "value": {"tensor": {"dtype": "DT_FLOAT", "tensorShape": {"dim": [{"size": "1"}, {"size": "1"}, {"size": "123"}, {"size": "96"}]}}}}}, {"name": "model/tfc3_6/tf_conv_48/conv2d_48/BiasAdd/ReadVariableOp", "op": "Const", "attr": {"dtype": {"type": "DT_FLOAT"}, "value": {"tensor": {"dtype": "DT_FLOAT", "tensorShape": {"dim": [{"size": "96"}]}}}}}, {"name": "model/tf_conv_51/sequential_13/tf_pad_6/Pad/paddings", "op": "Const", "attr": {"dtype": {"type": "DT_INT32"}, "value": {"tensor": {"dtype": "DT_INT32", "tensorShape": {"dim": [{"size": "4"}, {"size": "2"}]}}}}}, {"name": "model/tf_conv_51/sequential_13/conv2d_51/Conv2D/ReadVariableOp", "op": "Const", "attr": {"dtype": {"type": "DT_FLOAT"}, "value": {"tensor": {"dtype": "DT_FLOAT", "tensorShape": {"dim": [{"size": "3"}, {"size": "3"}, {"size": "96"}, {"size": "120"}]}}}}}, {"name": "model/tf_conv_51/sequential_13/conv2d_51/BiasAdd/ReadVariableOp", "op": "Const", "attr": {"dtype": {"type": "DT_FLOAT"}, "value": {"tensor": {"dtype": "DT_FLOAT", "tensorShape": {"dim": [{"size": "120"}]}}}}}, {"name": "model/tfc3_3/tf_conv_26/conv2d_26/Conv2D/ReadVariableOp", "op": "Const", "attr": {"value": {"tensor": {"dtype": "DT_FLOAT", "tensorShape": {"dim": [{"size": "1"}, {"size": "1"}, {"size": "256"}, {"size": "128"}]}}}, "dtype": {"type": "DT_FLOAT"}}}, {"name": "model/tfc3_3/tf_conv_26/conv2d_26/BiasAdd/ReadVariableOp", "op": "Const", "attr": {"dtype": {"type": "DT_FLOAT"}, "value": {"tensor": {"dtype": "DT_FLOAT", "tensorShape": {"dim": [{"size": "128"}]}}}}}, {"name": "model/tfc3_3/sequential_8/tf_bottleneck_6/tf_conv_29/conv2d_29/Conv2D/ReadVariableOp", "op": "Const", "attr": {"dtype": {"type": "DT_FLOAT"}, "value": {"tensor": {"dtype": "DT_FLOAT", "tensorShape": {"dim": [{"size": "1"}, {"size": "1"}, {"size": "128"}, {"size": "128"}]}}}}}, {"name": "model/tfc3_3/sequential_8/tf_bottleneck_6/tf_conv_29/conv2d_29/BiasAdd/ReadVariableOp", "op": "Const", "attr": {"value": {"tensor": {"dtype": "DT_FLOAT", "tensorShape": {"dim": [{"size": "128"}]}}}, "dtype": {"type": "DT_FLOAT"}}}, {"name": "model/tfc3_3/sequential_8/tf_bottleneck_6/tf_conv_30/conv2d_30/Conv2D/ReadVariableOp", "op": "Const", "attr": {"dtype": {"type": "DT_FLOAT"}, "value": {"tensor": {"dtype": "DT_FLOAT", "tensorShape": {"dim": [{"size": "3"}, {"size": "3"}, {"size": "128"}, {"size": "128"}]}}}}}, {"name": "model/tfc3_3/sequential_8/tf_bottleneck_6/tf_conv_30/conv2d_30/BiasAdd/ReadVariableOp", "op": "Const", "attr": {"value": {"tensor": {"dtype": "DT_FLOAT", "tensorShape": {"dim": [{"size": "128"}]}}}, "dtype": {"type": "DT_FLOAT"}}}, {"name": "model/tfc3_2/tf_conv_16/conv2d_16/Conv2D/ReadVariableOp", "op": "Const", "attr": {"dtype": {"type": "DT_FLOAT"}, "value": {"tensor": {"dtype": "DT_FLOAT", "tensorShape": {"dim": [{"size": "1"}, {"size": "1"}, {"size": "128"}, {"size": "63"}]}}}}}, {"name": "model/tfc3_2/tf_conv_16/conv2d_16/BiasAdd/ReadVariableOp", "op": "Const", "attr": {"value": {"tensor": {"dtype": "DT_FLOAT", "tensorShape": {"dim": [{"size": "63"}]}}}, "dtype": {"type": "DT_FLOAT"}}}, {"name": "model/tfc3_2/sequential_6/tf_bottleneck_3/tf_conv_19/conv2d_19/Conv2D/ReadVariableOp", "op": "Const", "attr": {"dtype": {"type": "DT_FLOAT"}, "value": {"tensor": {"dtype": "DT_FLOAT", "tensorShape": {"dim": [{"size": "1"}, {"size": "1"}, {"size": "63"}, {"size": "64"}]}}}}}, {"name": "model/tfc3_2/sequential_6/tf_bottleneck_3/tf_conv_19/conv2d_19/BiasAdd/ReadVariableOp", "op": "Const", "attr": {"dtype": {"type": "DT_FLOAT"}, "value": {"tensor": {"dtype": "DT_FLOAT", "tensorShape": {"dim": [{"size": "64"}]}}}}}, {"name": "model/tfc3_2/sequential_6/tf_bottleneck_3/tf_conv_20/conv2d_20/Conv2D/ReadVariableOp", "op": "Const", "attr": {"value": {"tensor": {"dtype": "DT_FLOAT", "tensorShape": {"dim": [{"size": "3"}, {"size": "3"}, {"size": "64"}, {"size": "63"}]}}}, "dtype": {"type": "DT_FLOAT"}}}, {"name": "model/tfc3_2/sequential_6/tf_bottleneck_3/tf_conv_20/conv2d_20/BiasAdd/ReadVariableOp", "op": "Const", "attr": {"value": {"tensor": {"dtype": "DT_FLOAT", "tensorShape": {"dim": [{"size": "63"}]}}}, "dtype": {"type": "DT_FLOAT"}}}, {"name": "model/tfc3_2/sequential_6/tf_bottleneck_4/tf_conv_21/conv2d_21/Conv2D/ReadVariableOp", "op": "Const", "attr": {"dtype": {"type": "DT_FLOAT"}, "value": {"tensor": {"dtype": "DT_FLOAT", "tensorShape": {"dim": [{"size": "1"}, {"size": "1"}, {"size": "63"}, {"size": "64"}]}}}}}, {"name": "model/tfc3_2/sequential_6/tf_bottleneck_4/tf_conv_21/conv2d_21/BiasAdd/ReadVariableOp", "op": "Const", "attr": {"value": {"tensor": {"dtype": "DT_FLOAT", "tensorShape": {"dim": [{"size": "64"}]}}}, "dtype": {"type": "DT_FLOAT"}}}, {"name": "model/tfc3_2/sequential_6/tf_bottleneck_4/tf_conv_22/conv2d_22/Conv2D/ReadVariableOp", "op": "Const", "attr": {"dtype": {"type": "DT_FLOAT"}, "value": {"tensor": {"dtype": "DT_FLOAT", "tensorShape": {"dim": [{"size": "3"}, {"size": "3"}, {"size": "64"}, {"size": "63"}]}}}}}, {"name": "model/tfc3_2/sequential_6/tf_bottleneck_4/tf_conv_22/conv2d_22/BiasAdd/ReadVariableOp", "op": "Const", "attr": {"dtype": {"type": "DT_FLOAT"}, "value": {"tensor": {"dtype": "DT_FLOAT", "tensorShape": {"dim": [{"size": "63"}]}}}}}, {"name": "model/tfc3_2/sequential_6/tf_bottleneck_5/tf_conv_23/conv2d_23/Conv2D/ReadVariableOp", "op": "Const", "attr": {"value": {"tensor": {"dtype": "DT_FLOAT", "tensorShape": {"dim": [{"size": "1"}, {"size": "1"}, {"size": "63"}, {"size": "64"}]}}}, "dtype": {"type": "DT_FLOAT"}}}, {"name": "model/tfc3_2/sequential_6/tf_bottleneck_5/tf_conv_23/conv2d_23/BiasAdd/ReadVariableOp", "op": "Const", "attr": {"dtype": {"type": "DT_FLOAT"}, "value": {"tensor": {"dtype": "DT_FLOAT", "tensorShape": {"dim": [{"size": "64"}]}}}}}, {"name": "model/tfc3_2/sequential_6/tf_bottleneck_5/tf_conv_24/conv2d_24/Conv2D/ReadVariableOp", "op": "Const", "attr": {"value": {"tensor": {"dtype": "DT_FLOAT", "tensorShape": {"dim": [{"size": "3"}, {"size": "3"}, {"size": "64"}, {"size": "63"}]}}}, "dtype": {"type": "DT_FLOAT"}}}, {"name": "model/tfc3_2/sequential_6/tf_bottleneck_5/tf_conv_24/conv2d_24/BiasAdd/ReadVariableOp", "op": "Const", "attr": {"dtype": {"type": "DT_FLOAT"}, "value": {"tensor": {"dtype": "DT_FLOAT", "tensorShape": {"dim": [{"size": "63"}]}}}}}, {"name": "model/tfc3_1/tf_conv_8/conv2d_8/Conv2D/ReadVariableOp", "op": "Const", "attr": {"value": {"tensor": {"dtype": "DT_FLOAT", "tensorShape": {"dim": [{"size": "1"}, {"size": "1"}, {"size": "62"}, {"size": "31"}]}}}, "dtype": {"type": "DT_FLOAT"}}}, {"name": "model/tfc3_1/tf_conv_8/conv2d_8/BiasAdd/ReadVariableOp", "op": "Const", "attr": {"value": {"tensor": {"dtype": "DT_FLOAT", "tensorShape": {"dim": [{"size": "31"}]}}}, "dtype": {"type": "DT_FLOAT"}}}, {"name": "model/tfc3_1/sequential_4/tf_bottleneck_1/tf_conv_11/conv2d_11/Conv2D/ReadVariableOp", "op": "Const", "attr": {"dtype": {"type": "DT_FLOAT"}, "value": {"tensor": {"dtype": "DT_FLOAT", "tensorShape": {"dim": [{"size": "1"}, {"size": "1"}, {"size": "31"}, {"size": "32"}]}}}}}, {"name": "model/tfc3_1/sequential_4/tf_bottleneck_1/tf_conv_11/conv2d_11/BiasAdd/ReadVariableOp", "op": "Const", "attr": {"dtype": {"type": "DT_FLOAT"}, "value": {"tensor": {"dtype": "DT_FLOAT", "tensorShape": {"dim": [{"size": "32"}]}}}}}, {"name": "model/tfc3_1/sequential_4/tf_bottleneck_1/tf_conv_12/conv2d_12/Conv2D/ReadVariableOp", "op": "Const", "attr": {"dtype": {"type": "DT_FLOAT"}, "value": {"tensor": {"dtype": "DT_FLOAT", "tensorShape": {"dim": [{"size": "3"}, {"size": "3"}, {"size": "32"}, {"size": "31"}]}}}}}, {"name": "model/tfc3_1/sequential_4/tf_bottleneck_1/tf_conv_12/conv2d_12/BiasAdd/ReadVariableOp", "op": "Const", "attr": {"value": {"tensor": {"dtype": "DT_FLOAT", "tensorShape": {"dim": [{"size": "31"}]}}}, "dtype": {"type": "DT_FLOAT"}}}, {"name": "model/tfc3_1/sequential_4/tf_bottleneck_2/tf_conv_13/conv2d_13/Conv2D/ReadVariableOp", "op": "Const", "attr": {"dtype": {"type": "DT_FLOAT"}, "value": {"tensor": {"dtype": "DT_FLOAT", "tensorShape": {"dim": [{"size": "1"}, {"size": "1"}, {"size": "31"}, {"size": "32"}]}}}}}, {"name": "model/tfc3_1/sequential_4/tf_bottleneck_2/tf_conv_13/conv2d_13/BiasAdd/ReadVariableOp", "op": "Const", "attr": {"value": {"tensor": {"dtype": "DT_FLOAT", "tensorShape": {"dim": [{"size": "32"}]}}}, "dtype": {"type": "DT_FLOAT"}}}, {"name": "model/tfc3_1/sequential_4/tf_bottleneck_2/tf_conv_14/conv2d_14/Conv2D/ReadVariableOp", "op": "Const", "attr": {"dtype": {"type": "DT_FLOAT"}, "value": {"tensor": {"dtype": "DT_FLOAT", "tensorShape": {"dim": [{"size": "3"}, {"size": "3"}, {"size": "32"}, {"size": "31"}]}}}}}, {"name": "model/tfc3_1/sequential_4/tf_bottleneck_2/tf_conv_14/conv2d_14/BiasAdd/ReadVariableOp", "op": "Const", "attr": {"dtype": {"type": "DT_FLOAT"}, "value": {"tensor": {"dtype": "DT_FLOAT", "tensorShape": {"dim": [{"size": "31"}]}}}}}, {"name": "model/tfc3/tf_conv_2/conv2d_2/Conv2D/ReadVariableOp", "op": "Const", "attr": {"dtype": {"type": "DT_FLOAT"}, "value": {"tensor": {"dtype": "DT_FLOAT", "tensorShape": {"dim": [{"size": "1"}, {"size": "1"}, {"size": "30"}, {"size": "14"}]}}}}}, {"name": "model/tfc3/tf_conv_2/conv2d_2/BiasAdd/ReadVariableOp", "op": "Const", "attr": {"value": {"tensor": {"dtype": "DT_FLOAT", "tensorShape": {"dim": [{"size": "14"}]}}}, "dtype": {"type": "DT_FLOAT"}}}, {"name": "model/tfc3/sequential_2/tf_bottleneck/tf_conv_5/conv2d_5/Conv2D/ReadVariableOp", "op": "Const", "attr": {"value": {"tensor": {"dtype": "DT_FLOAT", "tensorShape": {"dim": [{"size": "1"}, {"size": "1"}, {"size": "14"}, {"size": "16"}]}}}, "dtype": {"type": "DT_FLOAT"}}}, {"name": "model/tfc3/sequential_2/tf_bottleneck/tf_conv_5/conv2d_5/BiasAdd/ReadVariableOp", "op": "Const", "attr": {"dtype": {"type": "DT_FLOAT"}, "value": {"tensor": {"dtype": "DT_FLOAT", "tensorShape": {"dim": [{"size": "16"}]}}}}}, {"name": "model/tfc3/sequential_2/tf_bottleneck/tf_conv_6/conv2d_6/Conv2D/ReadVariableOp", "op": "Const", "attr": {"value": {"tensor": {"dtype": "DT_FLOAT", "tensorShape": {"dim": [{"size": "3"}, {"size": "3"}, {"size": "16"}, {"size": "14"}]}}}, "dtype": {"type": "DT_FLOAT"}}}, {"name": "model/tfc3/sequential_2/tf_bottleneck/tf_conv_6/conv2d_6/BiasAdd/ReadVariableOp", "op": "Const", "attr": {"value": {"tensor": {"dtype": "DT_FLOAT", "tensorShape": {"dim": [{"size": "14"}]}}}, "dtype": {"type": "DT_FLOAT"}}}, {"name": "model/tf_conv/sequential/tf_pad/Pad/paddings", "op": "Const", "attr": {"value": {"tensor": {"dtype": "DT_INT32", "tensorShape": {"dim": [{"size": "4"}, {"size": "2"}]}}}, "dtype": {"type": "DT_INT32"}}}, {"name": "model/tf_conv/sequential/conv2d/Conv2D/ReadVariableOp", "op": "Const", "attr": {"value": {"tensor": {"dtype": "DT_FLOAT", "tensorShape": {"dim": [{"size": "6"}, {"size": "6"}, {"size": "3"}, {"size": "15"}]}}}, "dtype": {"type": "DT_FLOAT"}}}, {"name": "model/tf_conv/sequential/conv2d/BiasAdd/ReadVariableOp", "op": "Const", "attr": {"value": {"tensor": {"dtype": "DT_FLOAT", "tensorShape": {"dim": [{"size": "15"}]}}}, "dtype": {"type": "DT_FLOAT"}}}, {"name": "model/tf_conv_1/sequential_1/tf_pad_1/Pad/paddings", "op": "Const", "attr": {"value": {"tensor": {"dtype": "DT_INT32", "tensorShape": {"dim": [{"size": "4"}, {"size": "2"}]}}}, "dtype": {"type": "DT_INT32"}}}, {"name": "model/tf_conv_1/sequential_1/conv2d_1/Conv2D/ReadVariableOp", "op": "Const", "attr": {"value": {"tensor": {"dtype": "DT_FLOAT", "tensorShape": {"dim": [{"size": "3"}, {"size": "3"}, {"size": "15"}, {"size": "30"}]}}}, "dtype": {"type": "DT_FLOAT"}}}, {"name": "model/tf_conv_1/sequential_1/conv2d_1/BiasAdd/ReadVariableOp", "op": "Const", "attr": {"value": {"tensor": {"dtype": "DT_FLOAT", "tensorShape": {"dim": [{"size": "30"}]}}}, "dtype": {"type": "DT_FLOAT"}}}, {"name": "model/tfc3/tf_conv_3/conv2d_3/Conv2D/ReadVariableOp", "op": "Const", "attr": {"value": {"tensor": {"dtype": "DT_FLOAT", "tensorShape": {"dim": [{"size": "1"}, {"size": "1"}, {"size": "30"}, {"size": "13"}]}}}, "dtype": {"type": "DT_FLOAT"}}}, {"name": "model/tfc3/tf_conv_3/conv2d_3/BiasAdd/ReadVariableOp", "op": "Const", "attr": {"dtype": {"type": "DT_FLOAT"}, "value": {"tensor": {"dtype": "DT_FLOAT", "tensorShape": {"dim": [{"size": "13"}]}}}}}, {"name": "model/tfc3/concat/axis", "op": "Const", "attr": {"value": {"tensor": {"dtype": "DT_INT32", "tensorShape": {}}}, "dtype": {"type": "DT_INT32"}}}, {"name": "model/tfc3/tf_conv_4/conv2d_4/Conv2D/ReadVariableOp", "op": "Const", "attr": {"dtype": {"type": "DT_FLOAT"}, "value": {"tensor": {"dtype": "DT_FLOAT", "tensorShape": {"dim": [{"size": "1"}, {"size": "1"}, {"size": "27"}, {"size": "25"}]}}}}}, {"name": "model/tfc3/tf_conv_4/conv2d_4/BiasAdd/ReadVariableOp", "op": "Const", "attr": {"value": {"tensor": {"dtype": "DT_FLOAT", "tensorShape": {"dim": [{"size": "25"}]}}}, "dtype": {"type": "DT_FLOAT"}}}, {"name": "model/tf_conv_7/sequential_3/tf_pad_2/Pad/paddings", "op": "Const", "attr": {"dtype": {"type": "DT_INT32"}, "value": {"tensor": {"dtype": "DT_INT32", "tensorShape": {"dim": [{"size": "4"}, {"size": "2"}]}}}}}, {"name": "model/tf_conv_7/sequential_3/conv2d_7/Conv2D/ReadVariableOp", "op": "Const", "attr": {"value": {"tensor": {"dtype": "DT_FLOAT", "tensorShape": {"dim": [{"size": "3"}, {"size": "3"}, {"size": "25"}, {"size": "62"}]}}}, "dtype": {"type": "DT_FLOAT"}}}, {"name": "model/tf_conv_7/sequential_3/conv2d_7/BiasAdd/ReadVariableOp", "op": "Const", "attr": {"dtype": {"type": "DT_FLOAT"}, "value": {"tensor": {"dtype": "DT_FLOAT", "tensorShape": {"dim": [{"size": "62"}]}}}}}, {"name": "model/tfc3_1/tf_conv_9/conv2d_9/Conv2D/ReadVariableOp", "op": "Const", "attr": {"dtype": {"type": "DT_FLOAT"}, "value": {"tensor": {"dtype": "DT_FLOAT", "tensorShape": {"dim": [{"size": "1"}, {"size": "1"}, {"size": "62"}, {"size": "31"}]}}}}}, {"name": "model/tfc3_1/tf_conv_9/conv2d_9/BiasAdd/ReadVariableOp", "op": "Const", "attr": {"dtype": {"type": "DT_FLOAT"}, "value": {"tensor": {"dtype": "DT_FLOAT", "tensorShape": {"dim": [{"size": "31"}]}}}}}, {"name": "model/tfc3_1/concat/axis", "op": "Const", "attr": {"dtype": {"type": "DT_INT32"}, "value": {"tensor": {"dtype": "DT_INT32", "tensorShape": {}}}}}, {"name": "model/tfc3_1/tf_conv_10/conv2d_10/Conv2D/ReadVariableOp", "op": "Const", "attr": {"dtype": {"type": "DT_FLOAT"}, "value": {"tensor": {"dtype": "DT_FLOAT", "tensorShape": {"dim": [{"size": "1"}, {"size": "1"}, {"size": "62"}, {"size": "60"}]}}}}}, {"name": "model/tfc3_1/tf_conv_10/conv2d_10/BiasAdd/ReadVariableOp", "op": "Const", "attr": {"dtype": {"type": "DT_FLOAT"}, "value": {"tensor": {"dtype": "DT_FLOAT", "tensorShape": {"dim": [{"size": "60"}]}}}}}, {"name": "model/tf_conv_15/sequential_5/tf_pad_3/Pad/paddings", "op": "Const", "attr": {"dtype": {"type": "DT_INT32"}, "value": {"tensor": {"dtype": "DT_INT32", "tensorShape": {"dim": [{"size": "4"}, {"size": "2"}]}}}}}, {"name": "model/tf_conv_15/sequential_5/conv2d_15/Conv2D/ReadVariableOp", "op": "Const", "attr": {"dtype": {"type": "DT_FLOAT"}, "value": {"tensor": {"dtype": "DT_FLOAT", "tensorShape": {"dim": [{"size": "3"}, {"size": "3"}, {"size": "60"}, {"size": "128"}]}}}}}, {"name": "model/tf_conv_15/sequential_5/conv2d_15/BiasAdd/ReadVariableOp", "op": "Const", "attr": {"dtype": {"type": "DT_FLOAT"}, "value": {"tensor": {"dtype": "DT_FLOAT", "tensorShape": {"dim": [{"size": "128"}]}}}}}, {"name": "model/tfc3_2/tf_conv_17/conv2d_17/Conv2D/ReadVariableOp", "op": "Const", "attr": {"value": {"tensor": {"dtype": "DT_FLOAT", "tensorShape": {"dim": [{"size": "1"}, {"size": "1"}, {"size": "128"}, {"size": "64"}]}}}, "dtype": {"type": "DT_FLOAT"}}}, {"name": "model/tfc3_2/tf_conv_17/conv2d_17/BiasAdd/ReadVariableOp", "op": "Const", "attr": {"dtype": {"type": "DT_FLOAT"}, "value": {"tensor": {"dtype": "DT_FLOAT", "tensorShape": {"dim": [{"size": "64"}]}}}}}, {"name": "model/tfc3_2/concat/axis", "op": "Const", "attr": {"dtype": {"type": "DT_INT32"}, "value": {"tensor": {"dtype": "DT_INT32", "tensorShape": {}}}}}, {"name": "model/tfc3_2/tf_conv_18/conv2d_18/Conv2D/ReadVariableOp", "op": "Const", "attr": {"value": {"tensor": {"dtype": "DT_FLOAT", "tensorShape": {"dim": [{"size": "1"}, {"size": "1"}, {"size": "127"}, {"size": "127"}]}}}, "dtype": {"type": "DT_FLOAT"}}}, {"name": "model/tfc3_2/tf_conv_18/conv2d_18/BiasAdd/ReadVariableOp", "op": "Const", "attr": {"dtype": {"type": "DT_FLOAT"}, "value": {"tensor": {"dtype": "DT_FLOAT", "tensorShape": {"dim": [{"size": "127"}]}}}}}, {"name": "model/tf_conv_25/sequential_7/tf_pad_4/Pad/paddings", "op": "Const", "attr": {"value": {"tensor": {"dtype": "DT_INT32", "tensorShape": {"dim": [{"size": "4"}, {"size": "2"}]}}}, "dtype": {"type": "DT_INT32"}}}, {"name": "model/tf_conv_25/sequential_7/conv2d_25/Conv2D/ReadVariableOp", "op": "Const", "attr": {"value": {"tensor": {"dtype": "DT_FLOAT", "tensorShape": {"dim": [{"size": "3"}, {"size": "3"}, {"size": "127"}, {"size": "256"}]}}}, "dtype": {"type": "DT_FLOAT"}}}, {"name": "model/tf_conv_25/sequential_7/conv2d_25/BiasAdd/ReadVariableOp", "op": "Const", "attr": {"dtype": {"type": "DT_FLOAT"}, "value": {"tensor": {"dtype": "DT_FLOAT", "tensorShape": {"dim": [{"size": "256"}]}}}}}, {"name": "model/tfc3_3/tf_conv_27/conv2d_27/Conv2D/ReadVariableOp", "op": "Const", "attr": {"dtype": {"type": "DT_FLOAT"}, "value": {"tensor": {"dtype": "DT_FLOAT", "tensorShape": {"dim": [{"size": "1"}, {"size": "1"}, {"size": "256"}, {"size": "128"}]}}}}}, {"name": "model/tfc3_3/tf_conv_27/conv2d_27/BiasAdd/ReadVariableOp", "op": "Const", "attr": {"value": {"tensor": {"dtype": "DT_FLOAT", "tensorShape": {"dim": [{"size": "128"}]}}}, "dtype": {"type": "DT_FLOAT"}}}, {"name": "model/tfc3_3/concat/axis", "op": "Const", "attr": {"value": {"tensor": {"dtype": "DT_INT32", "tensorShape": {}}}, "dtype": {"type": "DT_INT32"}}}, {"name": "model/tfc3_3/tf_conv_28/conv2d_28/Conv2D/ReadVariableOp", "op": "Const", "attr": {"dtype": {"type": "DT_FLOAT"}, "value": {"tensor": {"dtype": "DT_FLOAT", "tensorShape": {"dim": [{"size": "1"}, {"size": "1"}, {"size": "256"}, {"size": "251"}]}}}}}, {"name": "model/tfc3_3/tf_conv_28/conv2d_28/BiasAdd/ReadVariableOp", "op": "Const", "attr": {"dtype": {"type": "DT_FLOAT"}, "value": {"tensor": {"dtype": "DT_FLOAT", "tensorShape": {"dim": [{"size": "251"}]}}}}}, {"name": "model/tfsppf/tf_conv_31/conv2d_31/Conv2D/ReadVariableOp", "op": "Const", "attr": {"dtype": {"type": "DT_FLOAT"}, "value": {"tensor": {"dtype": "DT_FLOAT", "tensorShape": {"dim": [{"size": "1"}, {"size": "1"}, {"size": "251"}, {"size": "125"}]}}}}}, {"name": "model/tfsppf/tf_conv_31/conv2d_31/BiasAdd/ReadVariableOp", "op": "Const", "attr": {"value": {"tensor": {"dtype": "DT_FLOAT", "tensorShape": {"dim": [{"size": "125"}]}}}, "dtype": {"type": "DT_FLOAT"}}}, {"name": "model/tfsppf/concat/axis", "op": "Const", "attr": {"dtype": {"type": "DT_INT32"}, "value": {"tensor": {"dtype": "DT_INT32", "tensorShape": {}}}}}, {"name": "model/tfsppf/tf_conv_32/conv2d_32/Conv2D/ReadVariableOp", "op": "Const", "attr": {"value": {"tensor": {"dtype": "DT_FLOAT", "tensorShape": {"dim": [{"size": "1"}, {"size": "1"}, {"size": "500"}, {"size": "252"}]}}}, "dtype": {"type": "DT_FLOAT"}}}, {"name": "model/tfsppf/tf_conv_32/conv2d_32/BiasAdd/ReadVariableOp", "op": "Const", "attr": {"dtype": {"type": "DT_FLOAT"}, "value": {"tensor": {"dtype": "DT_FLOAT", "tensorShape": {"dim": [{"size": "252"}]}}}}}, {"name": "model/tf_conv_33/conv2d_33/Conv2D/ReadVariableOp", "op": "Const", "attr": {"dtype": {"type": "DT_FLOAT"}, "value": {"tensor": {"dtype": "DT_FLOAT", "tensorShape": {"dim": [{"size": "1"}, {"size": "1"}, {"size": "252"}, {"size": "126"}]}}}}}, {"name": "model/tf_conv_33/conv2d_33/BiasAdd/ReadVariableOp", "op": "Const", "attr": {"value": {"tensor": {"dtype": "DT_FLOAT", "tensorShape": {"dim": [{"size": "126"}]}}}, "dtype": {"type": "DT_FLOAT"}}}, {"name": "model/tf_concat_3/concat/axis", "op": "Const", "attr": {"dtype": {"type": "DT_INT32"}, "value": {"tensor": {"dtype": "DT_INT32", "tensorShape": {}}}}}, {"name": "model/tfc3_7/tf_conv_53/conv2d_53/Conv2D/ReadVariableOp", "op": "Const", "attr": {"value": {"tensor": {"dtype": "DT_FLOAT", "tensorShape": {"dim": [{"size": "1"}, {"size": "1"}, {"size": "246"}, {"size": "121"}]}}}, "dtype": {"type": "DT_FLOAT"}}}, {"name": "model/tfc3_7/tf_conv_53/conv2d_53/BiasAdd/ReadVariableOp", "op": "Const", "attr": {"value": {"tensor": {"dtype": "DT_FLOAT", "tensorShape": {"dim": [{"size": "121"}]}}}, "dtype": {"type": "DT_FLOAT"}}}, {"name": "model/tfc3_7/concat/axis", "op": "Const", "attr": {"value": {"tensor": {"dtype": "DT_INT32", "tensorShape": {}}}, "dtype": {"type": "DT_INT32"}}}, {"name": "model/tfc3_7/tf_conv_54/conv2d_54/Conv2D/ReadVariableOp", "op": "Const", "attr": {"dtype": {"type": "DT_FLOAT"}, "value": {"tensor": {"dtype": "DT_FLOAT", "tensorShape": {"dim": [{"size": "1"}, {"size": "1"}, {"size": "243"}, {"size": "154"}]}}}}}, {"name": "model/tfc3_7/tf_conv_54/conv2d_54/BiasAdd/ReadVariableOp", "op": "Const", "attr": {"value": {"tensor": {"dtype": "DT_FLOAT", "tensorShape": {"dim": [{"size": "154"}]}}}, "dtype": {"type": "DT_FLOAT"}}}, {"name": "model/tf_detect/tf_conv2d_2/conv2d_59/Conv2D/ReadVariableOp", "op": "Const", "attr": {"value": {"tensor": {"dtype": "DT_FLOAT", "tensorShape": {"dim": [{"size": "1"}, {"size": "1"}, {"size": "154"}, {"size": "99"}]}}}, "dtype": {"type": "DT_FLOAT"}}}, {"name": "model/tf_detect/tf_conv2d_2/conv2d_59/BiasAdd/ReadVariableOp", "op": "Const", "attr": {"value": {"tensor": {"dtype": "DT_FLOAT", "tensorShape": {"dim": [{"size": "99"}]}}}, "dtype": {"type": "DT_FLOAT"}}}, {"name": "model/tf_detect/Reshape_4/shape_1", "op": "Const", "attr": {"dtype": {"type": "DT_INT32"}, "value": {"tensor": {"dtype": "DT_INT32", "tensorShape": {"dim": [{"size": "4"}]}}}}}, {"name": "model/tf_detect/strided_slice_23/stack", "op": "Const", "attr": {"dtype": {"type": "DT_INT32"}, "value": {"tensor": {"dtype": "DT_INT32", "tensorShape": {"dim": [{"size": "2"}]}}}}}, {"name": "model/tf_detect/strided_slice_23/stack_1", "op": "Const", "attr": {"dtype": {"type": "DT_INT32"}, "value": {"tensor": {"dtype": "DT_INT32", "tensorShape": {"dim": [{"size": "2"}]}}}}}, {"name": "model/tf_detect/strided_slice_23/stack_2", "op": "Const", "attr": {"dtype": {"type": "DT_INT32"}, "value": {"tensor": {"dtype": "DT_INT32", "tensorShape": {"dim": [{"size": "2"}]}}}}}, {"name": "model/tf_detect/concat_2/axis", "op": "Const", "attr": {"dtype": {"type": "DT_INT32"}, "value": {"tensor": {"dtype": "DT_INT32", "tensorShape": {}}}}}, {"name": "model/tf_detect/Reshape_5/shape_1", "op": "Const", "attr": {"dtype": {"type": "DT_INT32"}, "value": {"tensor": {"dtype": "DT_INT32", "tensorShape": {"dim": [{"size": "3"}]}}}}}, {"name": "model/tf_detect/concat_3/axis", "op": "Const", "attr": {"dtype": {"type": "DT_INT32"}, "value": {"tensor": {"dtype": "DT_INT32", "tensorShape": {}}}}}, {"name": "model/tf.__operators__.getitem_2/strided_slice/stack", "op": "Const", "attr": {"value": {"tensor": {"dtype": "DT_INT32", "tensorShape": {"dim": [{"size": "3"}]}}}, "dtype": {"type": "DT_INT32"}}}, {"name": "model/tf.__operators__.getitem_2/strided_slice/stack_1", "op": "Const", "attr": {"value": {"tensor": {"dtype": "DT_INT32", "tensorShape": {"dim": [{"size": "3"}]}}}, "dtype": {"type": "DT_INT32"}}}, {"name": "model/tf.__operators__.getitem_2/strided_slice/stack_2", "op": "Const", "attr": {"value": {"tensor": {"dtype": "DT_INT32", "tensorShape": {"dim": [{"size": "3"}]}}}, "dtype": {"type": "DT_INT32"}}}, {"name": "x", "op": "Placeholder", "attr": {"dtype": {"type": "DT_FLOAT"}, "shape": {"shape": {"dim": [{"size": "1"}, {"size": "320"}, {"size": "320"}, {"size": "3"}]}}}}, {"name": "model/tf_conv/sequential/tf_pad/Pad", "op": "Pad", "input": ["x", "model/tf_conv/sequential/tf_pad/Pad/paddings"], "attr": {"T": {"type": "DT_FLOAT"}, "Tpaddings": {"type": "DT_INT32"}}}, {"name": "model/tf_conv/sequential/conv2d/BiasAdd", "op": "_FusedConv2D", "input": ["model/tf_conv/sequential/tf_pad/Pad", "model/tf_conv/sequential/conv2d/Conv2D/ReadVariableOp", "model/tf_conv/sequential/conv2d/BiasAdd/ReadVariableOp"], "device": "/device:CPU:0", "attr": {"fused_ops": {"list": {"s": ["Qmlhc0FkZA=="]}}, "num_args": {"i": "1"}, "filter_format": {"s": "SFdJTw=="}, "use_cudnn_on_gpu": {"b": true}, "dilations": {"list": {"i": ["1", "1", "1", "1"]}}, "T": {"type": "DT_FLOAT"}, "leakyrelu_alpha": {"f": 0.2}, "num_host_args": {"i": "0"}, "data_format": {"s": "TkhXQw=="}, "strides": {"list": {"i": ["1", "2", "2", "1"]}}, "epsilon": {"f": 0.0}, "padding": {"s": "VkFMSUQ="}, "TArgs": {"list": {"type": ["DT_FLOAT"]}}, "explicit_paddings": {"list": {}}}}, {"name": "model/tf_conv/Sigmoid", "op": "Sigmoid", "input": ["model/tf_conv/sequential/conv2d/BiasAdd"], "attr": {"T": {"type": "DT_FLOAT"}}}, {"name": "model/tf_conv/mul_1", "op": "Mul", "input": ["model/tf_conv/sequential/conv2d/BiasAdd", "model/tf_conv/Sigmoid"], "attr": {"T": {"type": "DT_FLOAT"}}}, {"name": "model/tf_conv_1/sequential_1/tf_pad_1/Pad", "op": "Pad", "input": ["model/tf_conv/mul_1", "model/tf_conv_1/sequential_1/tf_pad_1/Pad/paddings"], "attr": {"Tpaddings": {"type": "DT_INT32"}, "T": {"type": "DT_FLOAT"}}}, {"name": "model/tf_conv_1/sequential_1/conv2d_1/BiasAdd", "op": "_FusedConv2D", "input": ["model/tf_conv_1/sequential_1/tf_pad_1/Pad", "model/tf_conv_1/sequential_1/conv2d_1/Conv2D/ReadVariableOp", "model/tf_conv_1/sequential_1/conv2d_1/BiasAdd/ReadVariableOp"], "device": "/device:CPU:0", "attr": {"num_args": {"i": "1"}, "leakyrelu_alpha": {"f": 0.2}, "data_format": {"s": "TkhXQw=="}, "num_host_args": {"i": "0"}, "explicit_paddings": {"list": {}}, "TArgs": {"list": {"type": ["DT_FLOAT"]}}, "filter_format": {"s": "SFdJTw=="}, "fused_ops": {"list": {"s": ["Qmlhc0FkZA=="]}}, "strides": {"list": {"i": ["1", "2", "2", "1"]}}, "padding": {"s": "VkFMSUQ="}, "T": {"type": "DT_FLOAT"}, "epsilon": {"f": 0.0}, "dilations": {"list": {"i": ["1", "1", "1", "1"]}}, "use_cudnn_on_gpu": {"b": true}}}, {"name": "model/tf_conv_1/Sigmoid", "op": "Sigmoid", "input": ["model/tf_conv_1/sequential_1/conv2d_1/BiasAdd"], "attr": {"T": {"type": "DT_FLOAT"}}}, {"name": "model/tf_conv_1/mul_1", "op": "Mul", "input": ["model/tf_conv_1/sequential_1/conv2d_1/BiasAdd", "model/tf_conv_1/Sigmoid"], "attr": {"T": {"type": "DT_FLOAT"}}}, {"name": "model/tfc3/tf_conv_2/conv2d_2/BiasAdd", "op": "_FusedConv2D", "input": ["model/tf_conv_1/mul_1", "model/tfc3/tf_conv_2/conv2d_2/Conv2D/ReadVariableOp", "model/tfc3/tf_conv_2/conv2d_2/BiasAdd/ReadVariableOp"], "device": "/device:CPU:0", "attr": {"data_format": {"s": "TkhXQw=="}, "padding": {"s": "U0FNRQ=="}, "epsilon": {"f": 0.0}, "dilations": {"list": {"i": ["1", "1", "1", "1"]}}, "num_host_args": {"i": "0"}, "leakyrelu_alpha": {"f": 0.2}, "TArgs": {"list": {"type": ["DT_FLOAT"]}}, "filter_format": {"s": "SFdJTw=="}, "use_cudnn_on_gpu": {"b": true}, "strides": {"list": {"i": ["1", "1", "1", "1"]}}, "explicit_paddings": {"list": {}}, "T": {"type": "DT_FLOAT"}, "num_args": {"i": "1"}, "fused_ops": {"list": {"s": ["Qmlhc0FkZA=="]}}}}, {"name": "model/tfc3/tf_conv_3/conv2d_3/BiasAdd", "op": "_FusedConv2D", "input": ["model/tf_conv_1/mul_1", "model/tfc3/tf_conv_3/conv2d_3/Conv2D/ReadVariableOp", "model/tfc3/tf_conv_3/conv2d_3/BiasAdd/ReadVariableOp"], "device": "/device:CPU:0", "attr": {"T": {"type": "DT_FLOAT"}, "strides": {"list": {"i": ["1", "1", "1", "1"]}}, "fused_ops": {"list": {"s": ["Qmlhc0FkZA=="]}}, "filter_format": {"s": "SFdJTw=="}, "leakyrelu_alpha": {"f": 0.2}, "use_cudnn_on_gpu": {"b": true}, "epsilon": {"f": 0.0}, "padding": {"s": "U0FNRQ=="}, "num_host_args": {"i": "0"}, "data_format": {"s": "TkhXQw=="}, "TArgs": {"list": {"type": ["DT_FLOAT"]}}, "explicit_paddings": {"list": {}}, "num_args": {"i": "1"}, "dilations": {"list": {"i": ["1", "1", "1", "1"]}}}}, {"name": "model/tfc3/tf_conv_2/Sigmoid", "op": "Sigmoid", "input": ["model/tfc3/tf_conv_2/conv2d_2/BiasAdd"], "attr": {"T": {"type": "DT_FLOAT"}}}, {"name": "model/tfc3/tf_conv_3/Sigmoid", "op": "Sigmoid", "input": ["model/tfc3/tf_conv_3/conv2d_3/BiasAdd"], "attr": {"T": {"type": "DT_FLOAT"}}}, {"name": "model/tfc3/tf_conv_2/mul_1", "op": "Mul", "input": ["model/tfc3/tf_conv_2/conv2d_2/BiasAdd", "model/tfc3/tf_conv_2/Sigmoid"], "attr": {"T": {"type": "DT_FLOAT"}}}, {"name": "model/tfc3/tf_conv_3/mul_1", "op": "Mul", "input": ["model/tfc3/tf_conv_3/conv2d_3/BiasAdd", "model/tfc3/tf_conv_3/Sigmoid"], "attr": {"T": {"type": "DT_FLOAT"}}}, {"name": "model/tfc3/sequential_2/tf_bottleneck/tf_conv_5/conv2d_5/BiasAdd", "op": "_FusedConv2D", "input": ["model/tfc3/tf_conv_2/mul_1", "model/tfc3/sequential_2/tf_bottleneck/tf_conv_5/conv2d_5/Conv2D/ReadVariableOp", "model/tfc3/sequential_2/tf_bottleneck/tf_conv_5/conv2d_5/BiasAdd/ReadVariableOp"], "device": "/device:CPU:0", "attr": {"filter_format": {"s": "SFdJTw=="}, "padding": {"s": "U0FNRQ=="}, "data_format": {"s": "TkhXQw=="}, "explicit_paddings": {"list": {}}, "use_cudnn_on_gpu": {"b": true}, "TArgs": {"list": {"type": ["DT_FLOAT"]}}, "num_host_args": {"i": "0"}, "dilations": {"list": {"i": ["1", "1", "1", "1"]}}, "epsilon": {"f": 0.0}, "num_args": {"i": "1"}, "strides": {"list": {"i": ["1", "1", "1", "1"]}}, "T": {"type": "DT_FLOAT"}, "fused_ops": {"list": {"s": ["Qmlhc0FkZA=="]}}, "leakyrelu_alpha": {"f": 0.2}}}, {"name": "model/tfc3/sequential_2/tf_bottleneck/tf_conv_5/Sigmoid", "op": "Sigmoid", "input": ["model/tfc3/sequential_2/tf_bottleneck/tf_conv_5/conv2d_5/BiasAdd"], "attr": {"T": {"type": "DT_FLOAT"}}}, {"name": "model/tfc3/sequential_2/tf_bottleneck/tf_conv_5/mul_1", "op": "Mul", "input": ["model/tfc3/sequential_2/tf_bottleneck/tf_conv_5/conv2d_5/BiasAdd", "model/tfc3/sequential_2/tf_bottleneck/tf_conv_5/Sigmoid"], "attr": {"T": {"type": "DT_FLOAT"}}}, {"name": "model/tfc3/sequential_2/tf_bottleneck/tf_conv_6/conv2d_6/BiasAdd", "op": "_FusedConv2D", "input": ["model/tfc3/sequential_2/tf_bottleneck/tf_conv_5/mul_1", "model/tfc3/sequential_2/tf_bottleneck/tf_conv_6/conv2d_6/Conv2D/ReadVariableOp", "model/tfc3/sequential_2/tf_bottleneck/tf_conv_6/conv2d_6/BiasAdd/ReadVariableOp"], "device": "/device:CPU:0", "attr": {"epsilon": {"f": 0.0}, "dilations": {"list": {"i": ["1", "1", "1", "1"]}}, "use_cudnn_on_gpu": {"b": true}, "T": {"type": "DT_FLOAT"}, "padding": {"s": "U0FNRQ=="}, "fused_ops": {"list": {"s": ["Qmlhc0FkZA=="]}}, "explicit_paddings": {"list": {}}, "filter_format": {"s": "SFdJTw=="}, "data_format": {"s": "TkhXQw=="}, "strides": {"list": {"i": ["1", "1", "1", "1"]}}, "num_host_args": {"i": "0"}, "leakyrelu_alpha": {"f": 0.2}, "num_args": {"i": "1"}, "TArgs": {"list": {"type": ["DT_FLOAT"]}}}}, {"name": "model/tfc3/sequential_2/tf_bottleneck/tf_conv_6/Sigmoid", "op": "Sigmoid", "input": ["model/tfc3/sequential_2/tf_bottleneck/tf_conv_6/conv2d_6/BiasAdd"], "attr": {"T": {"type": "DT_FLOAT"}}}, {"name": "model/tfc3/sequential_2/tf_bottleneck/tf_conv_6/mul_1", "op": "Mul", "input": ["model/tfc3/sequential_2/tf_bottleneck/tf_conv_6/conv2d_6/BiasAdd", "model/tfc3/sequential_2/tf_bottleneck/tf_conv_6/Sigmoid"], "attr": {"T": {"type": "DT_FLOAT"}}}, {"name": "model/tfc3/sequential_2/tf_bottleneck/add", "op": "AddV2", "input": ["model/tfc3/tf_conv_2/mul_1", "model/tfc3/sequential_2/tf_bottleneck/tf_conv_6/mul_1"], "attr": {"T": {"type": "DT_FLOAT"}}}, {"name": "model/tfc3/concat", "op": "ConcatV2", "input": ["model/tfc3/sequential_2/tf_bottleneck/add", "model/tfc3/tf_conv_3/mul_1", "model/tfc3/concat/axis"], "attr": {"Tidx": {"type": "DT_INT32"}, "T": {"type": "DT_FLOAT"}, "N": {"i": "2"}}}, {"name": "model/tfc3/tf_conv_4/conv2d_4/BiasAdd", "op": "_FusedConv2D", "input": ["model/tfc3/concat", "model/tfc3/tf_conv_4/conv2d_4/Conv2D/ReadVariableOp", "model/tfc3/tf_conv_4/conv2d_4/BiasAdd/ReadVariableOp"], "device": "/device:CPU:0", "attr": {"dilations": {"list": {"i": ["1", "1", "1", "1"]}}, "use_cudnn_on_gpu": {"b": true}, "explicit_paddings": {"list": {}}, "num_host_args": {"i": "0"}, "T": {"type": "DT_FLOAT"}, "strides": {"list": {"i": ["1", "1", "1", "1"]}}, "padding": {"s": "U0FNRQ=="}, "num_args": {"i": "1"}, "leakyrelu_alpha": {"f": 0.2}, "filter_format": {"s": "SFdJTw=="}, "epsilon": {"f": 0.0}, "TArgs": {"list": {"type": ["DT_FLOAT"]}}, "data_format": {"s": "TkhXQw=="}, "fused_ops": {"list": {"s": ["Qmlhc0FkZA=="]}}}}, {"name": "model/tfc3/tf_conv_4/Sigmoid", "op": "Sigmoid", "input": ["model/tfc3/tf_conv_4/conv2d_4/BiasAdd"], "attr": {"T": {"type": "DT_FLOAT"}}}, {"name": "model/tfc3/tf_conv_4/mul_1", "op": "Mul", "input": ["model/tfc3/tf_conv_4/conv2d_4/BiasAdd", "model/tfc3/tf_conv_4/Sigmoid"], "attr": {"T": {"type": "DT_FLOAT"}}}, {"name": "model/tf_conv_7/sequential_3/tf_pad_2/Pad", "op": "Pad", "input": ["model/tfc3/tf_conv_4/mul_1", "model/tf_conv_7/sequential_3/tf_pad_2/Pad/paddings"], "attr": {"Tpaddings": {"type": "DT_INT32"}, "T": {"type": "DT_FLOAT"}}}, {"name": "model/tf_conv_7/sequential_3/conv2d_7/BiasAdd", "op": "_FusedConv2D", "input": ["model/tf_conv_7/sequential_3/tf_pad_2/Pad", "model/tf_conv_7/sequential_3/conv2d_7/Conv2D/ReadVariableOp", "model/tf_conv_7/sequential_3/conv2d_7/BiasAdd/ReadVariableOp"], "device": "/device:CPU:0", "attr": {"use_cudnn_on_gpu": {"b": true}, "dilations": {"list": {"i": ["1", "1", "1", "1"]}}, "fused_ops": {"list": {"s": ["Qmlhc0FkZA=="]}}, "explicit_paddings": {"list": {}}, "padding": {"s": "VkFMSUQ="}, "leakyrelu_alpha": {"f": 0.2}, "T": {"type": "DT_FLOAT"}, "data_format": {"s": "TkhXQw=="}, "filter_format": {"s": "SFdJTw=="}, "epsilon": {"f": 0.0}, "strides": {"list": {"i": ["1", "2", "2", "1"]}}, "num_host_args": {"i": "0"}, "TArgs": {"list": {"type": ["DT_FLOAT"]}}, "num_args": {"i": "1"}}}, {"name": "model/tf_conv_7/Sigmoid", "op": "Sigmoid", "input": ["model/tf_conv_7/sequential_3/conv2d_7/BiasAdd"], "attr": {"T": {"type": "DT_FLOAT"}}}, {"name": "model/tf_conv_7/mul_1", "op": "Mul", "input": ["model/tf_conv_7/sequential_3/conv2d_7/BiasAdd", "model/tf_conv_7/Sigmoid"], "attr": {"T": {"type": "DT_FLOAT"}}}, {"name": "model/tfc3_1/tf_conv_8/conv2d_8/BiasAdd", "op": "_FusedConv2D", "input": ["model/tf_conv_7/mul_1", "model/tfc3_1/tf_conv_8/conv2d_8/Conv2D/ReadVariableOp", "model/tfc3_1/tf_conv_8/conv2d_8/BiasAdd/ReadVariableOp"], "device": "/device:CPU:0", "attr": {"explicit_paddings": {"list": {}}, "padding": {"s": "U0FNRQ=="}, "epsilon": {"f": 0.0}, "leakyrelu_alpha": {"f": 0.2}, "fused_ops": {"list": {"s": ["Qmlhc0FkZA=="]}}, "T": {"type": "DT_FLOAT"}, "filter_format": {"s": "SFdJTw=="}, "use_cudnn_on_gpu": {"b": true}, "num_host_args": {"i": "0"}, "strides": {"list": {"i": ["1", "1", "1", "1"]}}, "num_args": {"i": "1"}, "data_format": {"s": "TkhXQw=="}, "dilations": {"list": {"i": ["1", "1", "1", "1"]}}, "TArgs": {"list": {"type": ["DT_FLOAT"]}}}}, {"name": "model/tfc3_1/tf_conv_9/conv2d_9/BiasAdd", "op": "_FusedConv2D", "input": ["model/tf_conv_7/mul_1", "model/tfc3_1/tf_conv_9/conv2d_9/Conv2D/ReadVariableOp", "model/tfc3_1/tf_conv_9/conv2d_9/BiasAdd/ReadVariableOp"], "device": "/device:CPU:0", "attr": {"data_format": {"s": "TkhXQw=="}, "num_args": {"i": "1"}, "TArgs": {"list": {"type": ["DT_FLOAT"]}}, "leakyrelu_alpha": {"f": 0.2}, "epsilon": {"f": 0.0}, "T": {"type": "DT_FLOAT"}, "dilations": {"list": {"i": ["1", "1", "1", "1"]}}, "filter_format": {"s": "SFdJTw=="}, "fused_ops": {"list": {"s": ["Qmlhc0FkZA=="]}}, "strides": {"list": {"i": ["1", "1", "1", "1"]}}, "padding": {"s": "U0FNRQ=="}, "explicit_paddings": {"list": {}}, "num_host_args": {"i": "0"}, "use_cudnn_on_gpu": {"b": true}}}, {"name": "model/tfc3_1/tf_conv_8/Sigmoid", "op": "Sigmoid", "input": ["model/tfc3_1/tf_conv_8/conv2d_8/BiasAdd"], "attr": {"T": {"type": "DT_FLOAT"}}}, {"name": "model/tfc3_1/tf_conv_9/Sigmoid", "op": "Sigmoid", "input": ["model/tfc3_1/tf_conv_9/conv2d_9/BiasAdd"], "attr": {"T": {"type": "DT_FLOAT"}}}, {"name": "model/tfc3_1/tf_conv_8/mul_1", "op": "Mul", "input": ["model/tfc3_1/tf_conv_8/conv2d_8/BiasAdd", "model/tfc3_1/tf_conv_8/Sigmoid"], "attr": {"T": {"type": "DT_FLOAT"}}}, {"name": "model/tfc3_1/tf_conv_9/mul_1", "op": "Mul", "input": ["model/tfc3_1/tf_conv_9/conv2d_9/BiasAdd", "model/tfc3_1/tf_conv_9/Sigmoid"], "attr": {"T": {"type": "DT_FLOAT"}}}, {"name": "model/tfc3_1/sequential_4/tf_bottleneck_1/tf_conv_11/conv2d_11/BiasAdd", "op": "_FusedConv2D", "input": ["model/tfc3_1/tf_conv_8/mul_1", "model/tfc3_1/sequential_4/tf_bottleneck_1/tf_conv_11/conv2d_11/Conv2D/ReadVariableOp", "model/tfc3_1/sequential_4/tf_bottleneck_1/tf_conv_11/conv2d_11/BiasAdd/ReadVariableOp"], "device": "/device:CPU:0", "attr": {"dilations": {"list": {"i": ["1", "1", "1", "1"]}}, "T": {"type": "DT_FLOAT"}, "strides": {"list": {"i": ["1", "1", "1", "1"]}}, "leakyrelu_alpha": {"f": 0.2}, "num_host_args": {"i": "0"}, "fused_ops": {"list": {"s": ["Qmlhc0FkZA=="]}}, "num_args": {"i": "1"}, "filter_format": {"s": "SFdJTw=="}, "data_format": {"s": "TkhXQw=="}, "explicit_paddings": {"list": {}}, "use_cudnn_on_gpu": {"b": true}, "TArgs": {"list": {"type": ["DT_FLOAT"]}}, "epsilon": {"f": 0.0}, "padding": {"s": "U0FNRQ=="}}}, {"name": "model/tfc3_1/sequential_4/tf_bottleneck_1/tf_conv_11/Sigmoid", "op": "Sigmoid", "input": ["model/tfc3_1/sequential_4/tf_bottleneck_1/tf_conv_11/conv2d_11/BiasAdd"], "attr": {"T": {"type": "DT_FLOAT"}}}, {"name": "model/tfc3_1/sequential_4/tf_bottleneck_1/tf_conv_11/mul_1", "op": "Mul", "input": ["model/tfc3_1/sequential_4/tf_bottleneck_1/tf_conv_11/conv2d_11/BiasAdd", "model/tfc3_1/sequential_4/tf_bottleneck_1/tf_conv_11/Sigmoid"], "attr": {"T": {"type": "DT_FLOAT"}}}, {"name": "model/tfc3_1/sequential_4/tf_bottleneck_1/tf_conv_12/conv2d_12/BiasAdd", "op": "_FusedConv2D", "input": ["model/tfc3_1/sequential_4/tf_bottleneck_1/tf_conv_11/mul_1", "model/tfc3_1/sequential_4/tf_bottleneck_1/tf_conv_12/conv2d_12/Conv2D/ReadVariableOp", "model/tfc3_1/sequential_4/tf_bottleneck_1/tf_conv_12/conv2d_12/BiasAdd/ReadVariableOp"], "device": "/device:CPU:0", "attr": {"strides": {"list": {"i": ["1", "1", "1", "1"]}}, "leakyrelu_alpha": {"f": 0.2}, "filter_format": {"s": "SFdJTw=="}, "dilations": {"list": {"i": ["1", "1", "1", "1"]}}, "num_args": {"i": "1"}, "padding": {"s": "U0FNRQ=="}, "fused_ops": {"list": {"s": ["Qmlhc0FkZA=="]}}, "use_cudnn_on_gpu": {"b": true}, "epsilon": {"f": 0.0}, "num_host_args": {"i": "0"}, "T": {"type": "DT_FLOAT"}, "TArgs": {"list": {"type": ["DT_FLOAT"]}}, "explicit_paddings": {"list": {}}, "data_format": {"s": "TkhXQw=="}}}, {"name": "model/tfc3_1/sequential_4/tf_bottleneck_1/tf_conv_12/Sigmoid", "op": "Sigmoid", "input": ["model/tfc3_1/sequential_4/tf_bottleneck_1/tf_conv_12/conv2d_12/BiasAdd"], "attr": {"T": {"type": "DT_FLOAT"}}}, {"name": "model/tfc3_1/sequential_4/tf_bottleneck_1/tf_conv_12/mul_1", "op": "Mul", "input": ["model/tfc3_1/sequential_4/tf_bottleneck_1/tf_conv_12/conv2d_12/BiasAdd", "model/tfc3_1/sequential_4/tf_bottleneck_1/tf_conv_12/Sigmoid"], "attr": {"T": {"type": "DT_FLOAT"}}}, {"name": "model/tfc3_1/sequential_4/tf_bottleneck_1/add", "op": "AddV2", "input": ["model/tfc3_1/tf_conv_8/mul_1", "model/tfc3_1/sequential_4/tf_bottleneck_1/tf_conv_12/mul_1"], "attr": {"T": {"type": "DT_FLOAT"}}}, {"name": "model/tfc3_1/sequential_4/tf_bottleneck_2/tf_conv_13/conv2d_13/BiasAdd", "op": "_FusedConv2D", "input": ["model/tfc3_1/sequential_4/tf_bottleneck_1/add", "model/tfc3_1/sequential_4/tf_bottleneck_2/tf_conv_13/conv2d_13/Conv2D/ReadVariableOp", "model/tfc3_1/sequential_4/tf_bottleneck_2/tf_conv_13/conv2d_13/BiasAdd/ReadVariableOp"], "device": "/device:CPU:0", "attr": {"TArgs": {"list": {"type": ["DT_FLOAT"]}}, "T": {"type": "DT_FLOAT"}, "strides": {"list": {"i": ["1", "1", "1", "1"]}}, "explicit_paddings": {"list": {}}, "padding": {"s": "U0FNRQ=="}, "num_host_args": {"i": "0"}, "fused_ops": {"list": {"s": ["Qmlhc0FkZA=="]}}, "data_format": {"s": "TkhXQw=="}, "filter_format": {"s": "SFdJTw=="}, "num_args": {"i": "1"}, "use_cudnn_on_gpu": {"b": true}, "leakyrelu_alpha": {"f": 0.2}, "epsilon": {"f": 0.0}, "dilations": {"list": {"i": ["1", "1", "1", "1"]}}}}, {"name": "model/tfc3_1/sequential_4/tf_bottleneck_2/tf_conv_13/Sigmoid", "op": "Sigmoid", "input": ["model/tfc3_1/sequential_4/tf_bottleneck_2/tf_conv_13/conv2d_13/BiasAdd"], "attr": {"T": {"type": "DT_FLOAT"}}}, {"name": "model/tfc3_1/sequential_4/tf_bottleneck_2/tf_conv_13/mul_1", "op": "Mul", "input": ["model/tfc3_1/sequential_4/tf_bottleneck_2/tf_conv_13/conv2d_13/BiasAdd", "model/tfc3_1/sequential_4/tf_bottleneck_2/tf_conv_13/Sigmoid"], "attr": {"T": {"type": "DT_FLOAT"}}}, {"name": "model/tfc3_1/sequential_4/tf_bottleneck_2/tf_conv_14/conv2d_14/BiasAdd", "op": "_FusedConv2D", "input": ["model/tfc3_1/sequential_4/tf_bottleneck_2/tf_conv_13/mul_1", "model/tfc3_1/sequential_4/tf_bottleneck_2/tf_conv_14/conv2d_14/Conv2D/ReadVariableOp", "model/tfc3_1/sequential_4/tf_bottleneck_2/tf_conv_14/conv2d_14/BiasAdd/ReadVariableOp"], "device": "/device:CPU:0", "attr": {"leakyrelu_alpha": {"f": 0.2}, "data_format": {"s": "TkhXQw=="}, "TArgs": {"list": {"type": ["DT_FLOAT"]}}, "explicit_paddings": {"list": {}}, "T": {"type": "DT_FLOAT"}, "strides": {"list": {"i": ["1", "1", "1", "1"]}}, "epsilon": {"f": 0.0}, "num_args": {"i": "1"}, "fused_ops": {"list": {"s": ["Qmlhc0FkZA=="]}}, "filter_format": {"s": "SFdJTw=="}, "use_cudnn_on_gpu": {"b": true}, "dilations": {"list": {"i": ["1", "1", "1", "1"]}}, "padding": {"s": "U0FNRQ=="}, "num_host_args": {"i": "0"}}}, {"name": "model/tfc3_1/sequential_4/tf_bottleneck_2/tf_conv_14/Sigmoid", "op": "Sigmoid", "input": ["model/tfc3_1/sequential_4/tf_bottleneck_2/tf_conv_14/conv2d_14/BiasAdd"], "attr": {"T": {"type": "DT_FLOAT"}}}, {"name": "model/tfc3_1/sequential_4/tf_bottleneck_2/tf_conv_14/mul_1", "op": "Mul", "input": ["model/tfc3_1/sequential_4/tf_bottleneck_2/tf_conv_14/conv2d_14/BiasAdd", "model/tfc3_1/sequential_4/tf_bottleneck_2/tf_conv_14/Sigmoid"], "attr": {"T": {"type": "DT_FLOAT"}}}, {"name": "model/tfc3_1/sequential_4/tf_bottleneck_2/add", "op": "AddV2", "input": ["model/tfc3_1/sequential_4/tf_bottleneck_1/add", "model/tfc3_1/sequential_4/tf_bottleneck_2/tf_conv_14/mul_1"], "attr": {"T": {"type": "DT_FLOAT"}}}, {"name": "model/tfc3_1/concat", "op": "ConcatV2", "input": ["model/tfc3_1/sequential_4/tf_bottleneck_2/add", "model/tfc3_1/tf_conv_9/mul_1", "model/tfc3_1/concat/axis"], "attr": {"N": {"i": "2"}, "Tidx": {"type": "DT_INT32"}, "T": {"type": "DT_FLOAT"}}}, {"name": "model/tfc3_1/tf_conv_10/conv2d_10/BiasAdd", "op": "_FusedConv2D", "input": ["model/tfc3_1/concat", "model/tfc3_1/tf_conv_10/conv2d_10/Conv2D/ReadVariableOp", "model/tfc3_1/tf_conv_10/conv2d_10/BiasAdd/ReadVariableOp"], "device": "/device:CPU:0", "attr": {"explicit_paddings": {"list": {}}, "T": {"type": "DT_FLOAT"}, "num_args": {"i": "1"}, "use_cudnn_on_gpu": {"b": true}, "data_format": {"s": "TkhXQw=="}, "fused_ops": {"list": {"s": ["Qmlhc0FkZA=="]}}, "leakyrelu_alpha": {"f": 0.2}, "TArgs": {"list": {"type": ["DT_FLOAT"]}}, "padding": {"s": "U0FNRQ=="}, "num_host_args": {"i": "0"}, "filter_format": {"s": "SFdJTw=="}, "epsilon": {"f": 0.0}, "dilations": {"list": {"i": ["1", "1", "1", "1"]}}, "strides": {"list": {"i": ["1", "1", "1", "1"]}}}}, {"name": "model/tfc3_1/tf_conv_10/Sigmoid", "op": "Sigmoid", "input": ["model/tfc3_1/tf_conv_10/conv2d_10/BiasAdd"], "attr": {"T": {"type": "DT_FLOAT"}}}, {"name": "model/tfc3_1/tf_conv_10/mul_1", "op": "Mul", "input": ["model/tfc3_1/tf_conv_10/conv2d_10/BiasAdd", "model/tfc3_1/tf_conv_10/Sigmoid"], "attr": {"T": {"type": "DT_FLOAT"}}}, {"name": "model/tf_conv_15/sequential_5/tf_pad_3/Pad", "op": "Pad", "input": ["model/tfc3_1/tf_conv_10/mul_1", "model/tf_conv_15/sequential_5/tf_pad_3/Pad/paddings"], "attr": {"Tpaddings": {"type": "DT_INT32"}, "T": {"type": "DT_FLOAT"}}}, {"name": "model/tf_conv_15/sequential_5/conv2d_15/BiasAdd", "op": "_FusedConv2D", "input": ["model/tf_conv_15/sequential_5/tf_pad_3/Pad", "model/tf_conv_15/sequential_5/conv2d_15/Conv2D/ReadVariableOp", "model/tf_conv_15/sequential_5/conv2d_15/BiasAdd/ReadVariableOp"], "device": "/device:CPU:0", "attr": {"epsilon": {"f": 0.0}, "TArgs": {"list": {"type": ["DT_FLOAT"]}}, "num_args": {"i": "1"}, "fused_ops": {"list": {"s": ["Qmlhc0FkZA=="]}}, "dilations": {"list": {"i": ["1", "1", "1", "1"]}}, "filter_format": {"s": "SFdJTw=="}, "explicit_paddings": {"list": {}}, "strides": {"list": {"i": ["1", "2", "2", "1"]}}, "use_cudnn_on_gpu": {"b": true}, "T": {"type": "DT_FLOAT"}, "padding": {"s": "VkFMSUQ="}, "num_host_args": {"i": "0"}, "data_format": {"s": "TkhXQw=="}, "leakyrelu_alpha": {"f": 0.2}}}, {"name": "model/tf_conv_15/Sigmoid", "op": "Sigmoid", "input": ["model/tf_conv_15/sequential_5/conv2d_15/BiasAdd"], "attr": {"T": {"type": "DT_FLOAT"}}}, {"name": "model/tf_conv_15/mul_1", "op": "Mul", "input": ["model/tf_conv_15/sequential_5/conv2d_15/BiasAdd", "model/tf_conv_15/Sigmoid"], "attr": {"T": {"type": "DT_FLOAT"}}}, {"name": "model/tfc3_2/tf_conv_16/conv2d_16/BiasAdd", "op": "_FusedConv2D", "input": ["model/tf_conv_15/mul_1", "model/tfc3_2/tf_conv_16/conv2d_16/Conv2D/ReadVariableOp", "model/tfc3_2/tf_conv_16/conv2d_16/BiasAdd/ReadVariableOp"], "device": "/device:CPU:0", "attr": {"num_args": {"i": "1"}, "TArgs": {"list": {"type": ["DT_FLOAT"]}}, "epsilon": {"f": 0.0}, "filter_format": {"s": "SFdJTw=="}, "explicit_paddings": {"list": {}}, "padding": {"s": "U0FNRQ=="}, "strides": {"list": {"i": ["1", "1", "1", "1"]}}, "data_format": {"s": "TkhXQw=="}, "fused_ops": {"list": {"s": ["Qmlhc0FkZA=="]}}, "num_host_args": {"i": "0"}, "leakyrelu_alpha": {"f": 0.2}, "use_cudnn_on_gpu": {"b": true}, "dilations": {"list": {"i": ["1", "1", "1", "1"]}}, "T": {"type": "DT_FLOAT"}}}, {"name": "model/tfc3_2/tf_conv_17/conv2d_17/BiasAdd", "op": "_FusedConv2D", "input": ["model/tf_conv_15/mul_1", "model/tfc3_2/tf_conv_17/conv2d_17/Conv2D/ReadVariableOp", "model/tfc3_2/tf_conv_17/conv2d_17/BiasAdd/ReadVariableOp"], "device": "/device:CPU:0", "attr": {"filter_format": {"s": "SFdJTw=="}, "TArgs": {"list": {"type": ["DT_FLOAT"]}}, "data_format": {"s": "TkhXQw=="}, "T": {"type": "DT_FLOAT"}, "use_cudnn_on_gpu": {"b": true}, "explicit_paddings": {"list": {}}, "dilations": {"list": {"i": ["1", "1", "1", "1"]}}, "fused_ops": {"list": {"s": ["Qmlhc0FkZA=="]}}, "num_host_args": {"i": "0"}, "leakyrelu_alpha": {"f": 0.2}, "padding": {"s": "U0FNRQ=="}, "epsilon": {"f": 0.0}, "num_args": {"i": "1"}, "strides": {"list": {"i": ["1", "1", "1", "1"]}}}}, {"name": "model/tfc3_2/tf_conv_16/Sigmoid", "op": "Sigmoid", "input": ["model/tfc3_2/tf_conv_16/conv2d_16/BiasAdd"], "attr": {"T": {"type": "DT_FLOAT"}}}, {"name": "model/tfc3_2/tf_conv_17/Sigmoid", "op": "Sigmoid", "input": ["model/tfc3_2/tf_conv_17/conv2d_17/BiasAdd"], "attr": {"T": {"type": "DT_FLOAT"}}}, {"name": "model/tfc3_2/tf_conv_16/mul_1", "op": "Mul", "input": ["model/tfc3_2/tf_conv_16/conv2d_16/BiasAdd", "model/tfc3_2/tf_conv_16/Sigmoid"], "attr": {"T": {"type": "DT_FLOAT"}}}, {"name": "model/tfc3_2/tf_conv_17/mul_1", "op": "Mul", "input": ["model/tfc3_2/tf_conv_17/conv2d_17/BiasAdd", "model/tfc3_2/tf_conv_17/Sigmoid"], "attr": {"T": {"type": "DT_FLOAT"}}}, {"name": "model/tfc3_2/sequential_6/tf_bottleneck_3/tf_conv_19/conv2d_19/BiasAdd", "op": "_FusedConv2D", "input": ["model/tfc3_2/tf_conv_16/mul_1", "model/tfc3_2/sequential_6/tf_bottleneck_3/tf_conv_19/conv2d_19/Conv2D/ReadVariableOp", "model/tfc3_2/sequential_6/tf_bottleneck_3/tf_conv_19/conv2d_19/BiasAdd/ReadVariableOp"], "device": "/device:CPU:0", "attr": {"dilations": {"list": {"i": ["1", "1", "1", "1"]}}, "strides": {"list": {"i": ["1", "1", "1", "1"]}}, "fused_ops": {"list": {"s": ["Qmlhc0FkZA=="]}}, "num_args": {"i": "1"}, "T": {"type": "DT_FLOAT"}, "filter_format": {"s": "SFdJTw=="}, "epsilon": {"f": 0.0}, "TArgs": {"list": {"type": ["DT_FLOAT"]}}, "use_cudnn_on_gpu": {"b": true}, "leakyrelu_alpha": {"f": 0.2}, "data_format": {"s": "TkhXQw=="}, "num_host_args": {"i": "0"}, "padding": {"s": "U0FNRQ=="}, "explicit_paddings": {"list": {}}}}, {"name": "model/tfc3_2/sequential_6/tf_bottleneck_3/tf_conv_19/Sigmoid", "op": "Sigmoid", "input": ["model/tfc3_2/sequential_6/tf_bottleneck_3/tf_conv_19/conv2d_19/BiasAdd"], "attr": {"T": {"type": "DT_FLOAT"}}}, {"name": "model/tfc3_2/sequential_6/tf_bottleneck_3/tf_conv_19/mul_1", "op": "Mul", "input": ["model/tfc3_2/sequential_6/tf_bottleneck_3/tf_conv_19/conv2d_19/BiasAdd", "model/tfc3_2/sequential_6/tf_bottleneck_3/tf_conv_19/Sigmoid"], "attr": {"T": {"type": "DT_FLOAT"}}}, {"name": "model/tfc3_2/sequential_6/tf_bottleneck_3/tf_conv_20/conv2d_20/BiasAdd", "op": "_FusedConv2D", "input": ["model/tfc3_2/sequential_6/tf_bottleneck_3/tf_conv_19/mul_1", "model/tfc3_2/sequential_6/tf_bottleneck_3/tf_conv_20/conv2d_20/Conv2D/ReadVariableOp", "model/tfc3_2/sequential_6/tf_bottleneck_3/tf_conv_20/conv2d_20/BiasAdd/ReadVariableOp"], "device": "/device:CPU:0", "attr": {"filter_format": {"s": "SFdJTw=="}, "padding": {"s": "U0FNRQ=="}, "explicit_paddings": {"list": {}}, "use_cudnn_on_gpu": {"b": true}, "num_args": {"i": "1"}, "TArgs": {"list": {"type": ["DT_FLOAT"]}}, "strides": {"list": {"i": ["1", "1", "1", "1"]}}, "num_host_args": {"i": "0"}, "fused_ops": {"list": {"s": ["Qmlhc0FkZA=="]}}, "dilations": {"list": {"i": ["1", "1", "1", "1"]}}, "data_format": {"s": "TkhXQw=="}, "epsilon": {"f": 0.0}, "T": {"type": "DT_FLOAT"}, "leakyrelu_alpha": {"f": 0.2}}}, {"name": "model/tfc3_2/sequential_6/tf_bottleneck_3/tf_conv_20/Sigmoid", "op": "Sigmoid", "input": ["model/tfc3_2/sequential_6/tf_bottleneck_3/tf_conv_20/conv2d_20/BiasAdd"], "attr": {"T": {"type": "DT_FLOAT"}}}, {"name": "model/tfc3_2/sequential_6/tf_bottleneck_3/tf_conv_20/mul_1", "op": "Mul", "input": ["model/tfc3_2/sequential_6/tf_bottleneck_3/tf_conv_20/conv2d_20/BiasAdd", "model/tfc3_2/sequential_6/tf_bottleneck_3/tf_conv_20/Sigmoid"], "attr": {"T": {"type": "DT_FLOAT"}}}, {"name": "model/tfc3_2/sequential_6/tf_bottleneck_3/add", "op": "AddV2", "input": ["model/tfc3_2/tf_conv_16/mul_1", "model/tfc3_2/sequential_6/tf_bottleneck_3/tf_conv_20/mul_1"], "attr": {"T": {"type": "DT_FLOAT"}}}, {"name": "model/tfc3_2/sequential_6/tf_bottleneck_4/tf_conv_21/conv2d_21/BiasAdd", "op": "_FusedConv2D", "input": ["model/tfc3_2/sequential_6/tf_bottleneck_3/add", "model/tfc3_2/sequential_6/tf_bottleneck_4/tf_conv_21/conv2d_21/Conv2D/ReadVariableOp", "model/tfc3_2/sequential_6/tf_bottleneck_4/tf_conv_21/conv2d_21/BiasAdd/ReadVariableOp"], "device": "/device:CPU:0", "attr": {"num_host_args": {"i": "0"}, "TArgs": {"list": {"type": ["DT_FLOAT"]}}, "padding": {"s": "U0FNRQ=="}, "T": {"type": "DT_FLOAT"}, "dilations": {"list": {"i": ["1", "1", "1", "1"]}}, "epsilon": {"f": 0.0}, "data_format": {"s": "TkhXQw=="}, "strides": {"list": {"i": ["1", "1", "1", "1"]}}, "leakyrelu_alpha": {"f": 0.2}, "num_args": {"i": "1"}, "use_cudnn_on_gpu": {"b": true}, "filter_format": {"s": "SFdJTw=="}, "fused_ops": {"list": {"s": ["Qmlhc0FkZA=="]}}, "explicit_paddings": {"list": {}}}}, {"name": "model/tfc3_2/sequential_6/tf_bottleneck_4/tf_conv_21/Sigmoid", "op": "Sigmoid", "input": ["model/tfc3_2/sequential_6/tf_bottleneck_4/tf_conv_21/conv2d_21/BiasAdd"], "attr": {"T": {"type": "DT_FLOAT"}}}, {"name": "model/tfc3_2/sequential_6/tf_bottleneck_4/tf_conv_21/mul_1", "op": "Mul", "input": ["model/tfc3_2/sequential_6/tf_bottleneck_4/tf_conv_21/conv2d_21/BiasAdd", "model/tfc3_2/sequential_6/tf_bottleneck_4/tf_conv_21/Sigmoid"], "attr": {"T": {"type": "DT_FLOAT"}}}, {"name": "model/tfc3_2/sequential_6/tf_bottleneck_4/tf_conv_22/conv2d_22/BiasAdd", "op": "_FusedConv2D", "input": ["model/tfc3_2/sequential_6/tf_bottleneck_4/tf_conv_21/mul_1", "model/tfc3_2/sequential_6/tf_bottleneck_4/tf_conv_22/conv2d_22/Conv2D/ReadVariableOp", "model/tfc3_2/sequential_6/tf_bottleneck_4/tf_conv_22/conv2d_22/BiasAdd/ReadVariableOp"], "device": "/device:CPU:0", "attr": {"use_cudnn_on_gpu": {"b": true}, "epsilon": {"f": 0.0}, "fused_ops": {"list": {"s": ["Qmlhc0FkZA=="]}}, "padding": {"s": "U0FNRQ=="}, "num_args": {"i": "1"}, "leakyrelu_alpha": {"f": 0.2}, "T": {"type": "DT_FLOAT"}, "data_format": {"s": "TkhXQw=="}, "TArgs": {"list": {"type": ["DT_FLOAT"]}}, "explicit_paddings": {"list": {}}, "num_host_args": {"i": "0"}, "filter_format": {"s": "SFdJTw=="}, "strides": {"list": {"i": ["1", "1", "1", "1"]}}, "dilations": {"list": {"i": ["1", "1", "1", "1"]}}}}, {"name": "model/tfc3_2/sequential_6/tf_bottleneck_4/tf_conv_22/Sigmoid", "op": "Sigmoid", "input": ["model/tfc3_2/sequential_6/tf_bottleneck_4/tf_conv_22/conv2d_22/BiasAdd"], "attr": {"T": {"type": "DT_FLOAT"}}}, {"name": "model/tfc3_2/sequential_6/tf_bottleneck_4/tf_conv_22/mul_1", "op": "Mul", "input": ["model/tfc3_2/sequential_6/tf_bottleneck_4/tf_conv_22/conv2d_22/BiasAdd", "model/tfc3_2/sequential_6/tf_bottleneck_4/tf_conv_22/Sigmoid"], "attr": {"T": {"type": "DT_FLOAT"}}}, {"name": "model/tfc3_2/sequential_6/tf_bottleneck_4/add", "op": "AddV2", "input": ["model/tfc3_2/sequential_6/tf_bottleneck_3/add", "model/tfc3_2/sequential_6/tf_bottleneck_4/tf_conv_22/mul_1"], "attr": {"T": {"type": "DT_FLOAT"}}}, {"name": "model/tfc3_2/sequential_6/tf_bottleneck_5/tf_conv_23/conv2d_23/BiasAdd", "op": "_FusedConv2D", "input": ["model/tfc3_2/sequential_6/tf_bottleneck_4/add", "model/tfc3_2/sequential_6/tf_bottleneck_5/tf_conv_23/conv2d_23/Conv2D/ReadVariableOp", "model/tfc3_2/sequential_6/tf_bottleneck_5/tf_conv_23/conv2d_23/BiasAdd/ReadVariableOp"], "device": "/device:CPU:0", "attr": {"TArgs": {"list": {"type": ["DT_FLOAT"]}}, "T": {"type": "DT_FLOAT"}, "num_args": {"i": "1"}, "padding": {"s": "U0FNRQ=="}, "use_cudnn_on_gpu": {"b": true}, "filter_format": {"s": "SFdJTw=="}, "dilations": {"list": {"i": ["1", "1", "1", "1"]}}, "leakyrelu_alpha": {"f": 0.2}, "fused_ops": {"list": {"s": ["Qmlhc0FkZA=="]}}, "num_host_args": {"i": "0"}, "strides": {"list": {"i": ["1", "1", "1", "1"]}}, "data_format": {"s": "TkhXQw=="}, "epsilon": {"f": 0.0}, "explicit_paddings": {"list": {}}}}, {"name": "model/tfc3_2/sequential_6/tf_bottleneck_5/tf_conv_23/Sigmoid", "op": "Sigmoid", "input": ["model/tfc3_2/sequential_6/tf_bottleneck_5/tf_conv_23/conv2d_23/BiasAdd"], "attr": {"T": {"type": "DT_FLOAT"}}}, {"name": "model/tfc3_2/sequential_6/tf_bottleneck_5/tf_conv_23/mul_1", "op": "Mul", "input": ["model/tfc3_2/sequential_6/tf_bottleneck_5/tf_conv_23/conv2d_23/BiasAdd", "model/tfc3_2/sequential_6/tf_bottleneck_5/tf_conv_23/Sigmoid"], "attr": {"T": {"type": "DT_FLOAT"}}}, {"name": "model/tfc3_2/sequential_6/tf_bottleneck_5/tf_conv_24/conv2d_24/BiasAdd", "op": "_FusedConv2D", "input": ["model/tfc3_2/sequential_6/tf_bottleneck_5/tf_conv_23/mul_1", "model/tfc3_2/sequential_6/tf_bottleneck_5/tf_conv_24/conv2d_24/Conv2D/ReadVariableOp", "model/tfc3_2/sequential_6/tf_bottleneck_5/tf_conv_24/conv2d_24/BiasAdd/ReadVariableOp"], "device": "/device:CPU:0", "attr": {"dilations": {"list": {"i": ["1", "1", "1", "1"]}}, "padding": {"s": "U0FNRQ=="}, "data_format": {"s": "TkhXQw=="}, "num_host_args": {"i": "0"}, "leakyrelu_alpha": {"f": 0.2}, "T": {"type": "DT_FLOAT"}, "use_cudnn_on_gpu": {"b": true}, "filter_format": {"s": "SFdJTw=="}, "explicit_paddings": {"list": {}}, "epsilon": {"f": 0.0}, "num_args": {"i": "1"}, "fused_ops": {"list": {"s": ["Qmlhc0FkZA=="]}}, "TArgs": {"list": {"type": ["DT_FLOAT"]}}, "strides": {"list": {"i": ["1", "1", "1", "1"]}}}}, {"name": "model/tfc3_2/sequential_6/tf_bottleneck_5/tf_conv_24/Sigmoid", "op": "Sigmoid", "input": ["model/tfc3_2/sequential_6/tf_bottleneck_5/tf_conv_24/conv2d_24/BiasAdd"], "attr": {"T": {"type": "DT_FLOAT"}}}, {"name": "model/tfc3_2/sequential_6/tf_bottleneck_5/tf_conv_24/mul_1", "op": "Mul", "input": ["model/tfc3_2/sequential_6/tf_bottleneck_5/tf_conv_24/conv2d_24/BiasAdd", "model/tfc3_2/sequential_6/tf_bottleneck_5/tf_conv_24/Sigmoid"], "attr": {"T": {"type": "DT_FLOAT"}}}, {"name": "model/tfc3_2/sequential_6/tf_bottleneck_5/add", "op": "AddV2", "input": ["model/tfc3_2/sequential_6/tf_bottleneck_4/add", "model/tfc3_2/sequential_6/tf_bottleneck_5/tf_conv_24/mul_1"], "attr": {"T": {"type": "DT_FLOAT"}}}, {"name": "model/tfc3_2/concat", "op": "ConcatV2", "input": ["model/tfc3_2/sequential_6/tf_bottleneck_5/add", "model/tfc3_2/tf_conv_17/mul_1", "model/tfc3_2/concat/axis"], "attr": {"T": {"type": "DT_FLOAT"}, "Tidx": {"type": "DT_INT32"}, "N": {"i": "2"}}}, {"name": "model/tfc3_2/tf_conv_18/conv2d_18/BiasAdd", "op": "_FusedConv2D", "input": ["model/tfc3_2/concat", "model/tfc3_2/tf_conv_18/conv2d_18/Conv2D/ReadVariableOp", "model/tfc3_2/tf_conv_18/conv2d_18/BiasAdd/ReadVariableOp"], "device": "/device:CPU:0", "attr": {"use_cudnn_on_gpu": {"b": true}, "explicit_paddings": {"list": {}}, "epsilon": {"f": 0.0}, "filter_format": {"s": "SFdJTw=="}, "num_args": {"i": "1"}, "padding": {"s": "U0FNRQ=="}, "leakyrelu_alpha": {"f": 0.2}, "dilations": {"list": {"i": ["1", "1", "1", "1"]}}, "TArgs": {"list": {"type": ["DT_FLOAT"]}}, "data_format": {"s": "TkhXQw=="}, "strides": {"list": {"i": ["1", "1", "1", "1"]}}, "T": {"type": "DT_FLOAT"}, "num_host_args": {"i": "0"}, "fused_ops": {"list": {"s": ["Qmlhc0FkZA=="]}}}}, {"name": "model/tfc3_2/tf_conv_18/Sigmoid", "op": "Sigmoid", "input": ["model/tfc3_2/tf_conv_18/conv2d_18/BiasAdd"], "attr": {"T": {"type": "DT_FLOAT"}}}, {"name": "model/tfc3_2/tf_conv_18/mul_1", "op": "Mul", "input": ["model/tfc3_2/tf_conv_18/conv2d_18/BiasAdd", "model/tfc3_2/tf_conv_18/Sigmoid"], "attr": {"T": {"type": "DT_FLOAT"}}}, {"name": "model/tf_conv_25/sequential_7/tf_pad_4/Pad", "op": "Pad", "input": ["model/tfc3_2/tf_conv_18/mul_1", "model/tf_conv_25/sequential_7/tf_pad_4/Pad/paddings"], "attr": {"T": {"type": "DT_FLOAT"}, "Tpaddings": {"type": "DT_INT32"}}}, {"name": "model/tf_conv_25/sequential_7/conv2d_25/BiasAdd", "op": "_FusedConv2D", "input": ["model/tf_conv_25/sequential_7/tf_pad_4/Pad", "model/tf_conv_25/sequential_7/conv2d_25/Conv2D/ReadVariableOp", "model/tf_conv_25/sequential_7/conv2d_25/BiasAdd/ReadVariableOp"], "device": "/device:CPU:0", "attr": {"fused_ops": {"list": {"s": ["Qmlhc0FkZA=="]}}, "TArgs": {"list": {"type": ["DT_FLOAT"]}}, "epsilon": {"f": 0.0}, "explicit_paddings": {"list": {}}, "data_format": {"s": "TkhXQw=="}, "padding": {"s": "VkFMSUQ="}, "T": {"type": "DT_FLOAT"}, "leakyrelu_alpha": {"f": 0.2}, "filter_format": {"s": "SFdJTw=="}, "dilations": {"list": {"i": ["1", "1", "1", "1"]}}, "strides": {"list": {"i": ["1", "2", "2", "1"]}}, "num_host_args": {"i": "0"}, "use_cudnn_on_gpu": {"b": true}, "num_args": {"i": "1"}}}, {"name": "model/tf_conv_25/Sigmoid", "op": "Sigmoid", "input": ["model/tf_conv_25/sequential_7/conv2d_25/BiasAdd"], "attr": {"T": {"type": "DT_FLOAT"}}}, {"name": "model/tf_conv_25/mul_1", "op": "Mul", "input": ["model/tf_conv_25/sequential_7/conv2d_25/BiasAdd", "model/tf_conv_25/Sigmoid"], "attr": {"T": {"type": "DT_FLOAT"}}}, {"name": "model/tfc3_3/tf_conv_26/conv2d_26/BiasAdd", "op": "_FusedConv2D", "input": ["model/tf_conv_25/mul_1", "model/tfc3_3/tf_conv_26/conv2d_26/Conv2D/ReadVariableOp", "model/tfc3_3/tf_conv_26/conv2d_26/BiasAdd/ReadVariableOp"], "device": "/device:CPU:0", "attr": {"dilations": {"list": {"i": ["1", "1", "1", "1"]}}, "use_cudnn_on_gpu": {"b": true}, "padding": {"s": "U0FNRQ=="}, "fused_ops": {"list": {"s": ["Qmlhc0FkZA=="]}}, "TArgs": {"list": {"type": ["DT_FLOAT"]}}, "num_args": {"i": "1"}, "filter_format": {"s": "SFdJTw=="}, "num_host_args": {"i": "0"}, "explicit_paddings": {"list": {}}, "epsilon": {"f": 0.0}, "T": {"type": "DT_FLOAT"}, "data_format": {"s": "TkhXQw=="}, "leakyrelu_alpha": {"f": 0.2}, "strides": {"list": {"i": ["1", "1", "1", "1"]}}}}, {"name": "model/tfc3_3/tf_conv_27/conv2d_27/BiasAdd", "op": "_FusedConv2D", "input": ["model/tf_conv_25/mul_1", "model/tfc3_3/tf_conv_27/conv2d_27/Conv2D/ReadVariableOp", "model/tfc3_3/tf_conv_27/conv2d_27/BiasAdd/ReadVariableOp"], "device": "/device:CPU:0", "attr": {"data_format": {"s": "TkhXQw=="}, "use_cudnn_on_gpu": {"b": true}, "explicit_paddings": {"list": {}}, "TArgs": {"list": {"type": ["DT_FLOAT"]}}, "fused_ops": {"list": {"s": ["Qmlhc0FkZA=="]}}, "padding": {"s": "U0FNRQ=="}, "strides": {"list": {"i": ["1", "1", "1", "1"]}}, "filter_format": {"s": "SFdJTw=="}, "num_args": {"i": "1"}, "num_host_args": {"i": "0"}, "T": {"type": "DT_FLOAT"}, "epsilon": {"f": 0.0}, "dilations": {"list": {"i": ["1", "1", "1", "1"]}}, "leakyrelu_alpha": {"f": 0.2}}}, {"name": "model/tfc3_3/tf_conv_26/Sigmoid", "op": "Sigmoid", "input": ["model/tfc3_3/tf_conv_26/conv2d_26/BiasAdd"], "attr": {"T": {"type": "DT_FLOAT"}}}, {"name": "model/tfc3_3/tf_conv_27/Sigmoid", "op": "Sigmoid", "input": ["model/tfc3_3/tf_conv_27/conv2d_27/BiasAdd"], "attr": {"T": {"type": "DT_FLOAT"}}}, {"name": "model/tfc3_3/tf_conv_26/mul_1", "op": "Mul", "input": ["model/tfc3_3/tf_conv_26/conv2d_26/BiasAdd", "model/tfc3_3/tf_conv_26/Sigmoid"], "attr": {"T": {"type": "DT_FLOAT"}}}, {"name": "model/tfc3_3/tf_conv_27/mul_1", "op": "Mul", "input": ["model/tfc3_3/tf_conv_27/conv2d_27/BiasAdd", "model/tfc3_3/tf_conv_27/Sigmoid"], "attr": {"T": {"type": "DT_FLOAT"}}}, {"name": "model/tfc3_3/sequential_8/tf_bottleneck_6/tf_conv_29/conv2d_29/BiasAdd", "op": "_FusedConv2D", "input": ["model/tfc3_3/tf_conv_26/mul_1", "model/tfc3_3/sequential_8/tf_bottleneck_6/tf_conv_29/conv2d_29/Conv2D/ReadVariableOp", "model/tfc3_3/sequential_8/tf_bottleneck_6/tf_conv_29/conv2d_29/BiasAdd/ReadVariableOp"], "device": "/device:CPU:0", "attr": {"padding": {"s": "U0FNRQ=="}, "num_args": {"i": "1"}, "use_cudnn_on_gpu": {"b": true}, "explicit_paddings": {"list": {}}, "data_format": {"s": "TkhXQw=="}, "leakyrelu_alpha": {"f": 0.2}, "dilations": {"list": {"i": ["1", "1", "1", "1"]}}, "strides": {"list": {"i": ["1", "1", "1", "1"]}}, "TArgs": {"list": {"type": ["DT_FLOAT"]}}, "fused_ops": {"list": {"s": ["Qmlhc0FkZA=="]}}, "T": {"type": "DT_FLOAT"}, "filter_format": {"s": "SFdJTw=="}, "num_host_args": {"i": "0"}, "epsilon": {"f": 0.0}}}, {"name": "model/tfc3_3/sequential_8/tf_bottleneck_6/tf_conv_29/Sigmoid", "op": "Sigmoid", "input": ["model/tfc3_3/sequential_8/tf_bottleneck_6/tf_conv_29/conv2d_29/BiasAdd"], "attr": {"T": {"type": "DT_FLOAT"}}}, {"name": "model/tfc3_3/sequential_8/tf_bottleneck_6/tf_conv_29/mul_1", "op": "Mul", "input": ["model/tfc3_3/sequential_8/tf_bottleneck_6/tf_conv_29/conv2d_29/BiasAdd", "model/tfc3_3/sequential_8/tf_bottleneck_6/tf_conv_29/Sigmoid"], "attr": {"T": {"type": "DT_FLOAT"}}}, {"name": "model/tfc3_3/sequential_8/tf_bottleneck_6/tf_conv_30/conv2d_30/BiasAdd", "op": "_FusedConv2D", "input": ["model/tfc3_3/sequential_8/tf_bottleneck_6/tf_conv_29/mul_1", "model/tfc3_3/sequential_8/tf_bottleneck_6/tf_conv_30/conv2d_30/Conv2D/ReadVariableOp", "model/tfc3_3/sequential_8/tf_bottleneck_6/tf_conv_30/conv2d_30/BiasAdd/ReadVariableOp"], "device": "/device:CPU:0", "attr": {"padding": {"s": "U0FNRQ=="}, "TArgs": {"list": {"type": ["DT_FLOAT"]}}, "strides": {"list": {"i": ["1", "1", "1", "1"]}}, "filter_format": {"s": "SFdJTw=="}, "dilations": {"list": {"i": ["1", "1", "1", "1"]}}, "epsilon": {"f": 0.0}, "fused_ops": {"list": {"s": ["Qmlhc0FkZA=="]}}, "explicit_paddings": {"list": {}}, "use_cudnn_on_gpu": {"b": true}, "data_format": {"s": "TkhXQw=="}, "leakyrelu_alpha": {"f": 0.2}, "T": {"type": "DT_FLOAT"}, "num_args": {"i": "1"}, "num_host_args": {"i": "0"}}}, {"name": "model/tfc3_3/sequential_8/tf_bottleneck_6/tf_conv_30/Sigmoid", "op": "Sigmoid", "input": ["model/tfc3_3/sequential_8/tf_bottleneck_6/tf_conv_30/conv2d_30/BiasAdd"], "attr": {"T": {"type": "DT_FLOAT"}}}, {"name": "model/tfc3_3/sequential_8/tf_bottleneck_6/tf_conv_30/mul_1", "op": "Mul", "input": ["model/tfc3_3/sequential_8/tf_bottleneck_6/tf_conv_30/conv2d_30/BiasAdd", "model/tfc3_3/sequential_8/tf_bottleneck_6/tf_conv_30/Sigmoid"], "attr": {"T": {"type": "DT_FLOAT"}}}, {"name": "model/tfc3_3/sequential_8/tf_bottleneck_6/add", "op": "AddV2", "input": ["model/tfc3_3/tf_conv_26/mul_1", "model/tfc3_3/sequential_8/tf_bottleneck_6/tf_conv_30/mul_1"], "attr": {"T": {"type": "DT_FLOAT"}}}, {"name": "model/tfc3_3/concat", "op": "ConcatV2", "input": ["model/tfc3_3/sequential_8/tf_bottleneck_6/add", "model/tfc3_3/tf_conv_27/mul_1", "model/tfc3_3/concat/axis"], "attr": {"T": {"type": "DT_FLOAT"}, "Tidx": {"type": "DT_INT32"}, "N": {"i": "2"}}}, {"name": "model/tfc3_3/tf_conv_28/conv2d_28/BiasAdd", "op": "_FusedConv2D", "input": ["model/tfc3_3/concat", "model/tfc3_3/tf_conv_28/conv2d_28/Conv2D/ReadVariableOp", "model/tfc3_3/tf_conv_28/conv2d_28/BiasAdd/ReadVariableOp"], "device": "/device:CPU:0", "attr": {"padding": {"s": "U0FNRQ=="}, "leakyrelu_alpha": {"f": 0.2}, "T": {"type": "DT_FLOAT"}, "filter_format": {"s": "SFdJTw=="}, "TArgs": {"list": {"type": ["DT_FLOAT"]}}, "epsilon": {"f": 0.0}, "strides": {"list": {"i": ["1", "1", "1", "1"]}}, "data_format": {"s": "TkhXQw=="}, "num_args": {"i": "1"}, "explicit_paddings": {"list": {}}, "use_cudnn_on_gpu": {"b": true}, "num_host_args": {"i": "0"}, "dilations": {"list": {"i": ["1", "1", "1", "1"]}}, "fused_ops": {"list": {"s": ["Qmlhc0FkZA=="]}}}}, {"name": "model/tfc3_3/tf_conv_28/Sigmoid", "op": "Sigmoid", "input": ["model/tfc3_3/tf_conv_28/conv2d_28/BiasAdd"], "attr": {"T": {"type": "DT_FLOAT"}}}, {"name": "model/tfc3_3/tf_conv_28/mul_1", "op": "Mul", "input": ["model/tfc3_3/tf_conv_28/conv2d_28/BiasAdd", "model/tfc3_3/tf_conv_28/Sigmoid"], "attr": {"T": {"type": "DT_FLOAT"}}}, {"name": "model/tfsppf/tf_conv_31/conv2d_31/BiasAdd", "op": "_FusedConv2D", "input": ["model/tfc3_3/tf_conv_28/mul_1", "model/tfsppf/tf_conv_31/conv2d_31/Conv2D/ReadVariableOp", "model/tfsppf/tf_conv_31/conv2d_31/BiasAdd/ReadVariableOp"], "device": "/device:CPU:0", "attr": {"dilations": {"list": {"i": ["1", "1", "1", "1"]}}, "padding": {"s": "U0FNRQ=="}, "epsilon": {"f": 0.0}, "num_args": {"i": "1"}, "strides": {"list": {"i": ["1", "1", "1", "1"]}}, "use_cudnn_on_gpu": {"b": true}, "TArgs": {"list": {"type": ["DT_FLOAT"]}}, "leakyrelu_alpha": {"f": 0.2}, "fused_ops": {"list": {"s": ["Qmlhc0FkZA=="]}}, "filter_format": {"s": "SFdJTw=="}, "num_host_args": {"i": "0"}, "data_format": {"s": "TkhXQw=="}, "T": {"type": "DT_FLOAT"}, "explicit_paddings": {"list": {}}}}, {"name": "model/tfsppf/tf_conv_31/Sigmoid", "op": "Sigmoid", "input": ["model/tfsppf/tf_conv_31/conv2d_31/BiasAdd"], "attr": {"T": {"type": "DT_FLOAT"}}}, {"name": "model/tfsppf/tf_conv_31/mul_1", "op": "Mul", "input": ["model/tfsppf/tf_conv_31/conv2d_31/BiasAdd", "model/tfsppf/tf_conv_31/Sigmoid"], "attr": {"T": {"type": "DT_FLOAT"}}}, {"name": "model/tfsppf/max_pooling2d/MaxPool", "op": "MaxPool", "input": ["model/tfsppf/tf_conv_31/mul_1"], "attr": {"data_format": {"s": "TkhXQw=="}, "explicit_paddings": {"list": {}}, "strides": {"list": {"i": ["1", "1", "1", "1"]}}, "T": {"type": "DT_FLOAT"}, "ksize": {"list": {"i": ["1", "5", "5", "1"]}}, "padding": {"s": "U0FNRQ=="}}}, {"name": "model/tfsppf/max_pooling2d/MaxPool_1", "op": "MaxPool", "input": ["model/tfsppf/max_pooling2d/MaxPool"], "attr": {"explicit_paddings": {"list": {}}, "strides": {"list": {"i": ["1", "1", "1", "1"]}}, "data_format": {"s": "TkhXQw=="}, "T": {"type": "DT_FLOAT"}, "padding": {"s": "U0FNRQ=="}, "ksize": {"list": {"i": ["1", "5", "5", "1"]}}}}, {"name": "model/tfsppf/max_pooling2d/MaxPool_2", "op": "MaxPool", "input": ["model/tfsppf/max_pooling2d/MaxPool_1"], "attr": {"padding": {"s": "U0FNRQ=="}, "ksize": {"list": {"i": ["1", "5", "5", "1"]}}, "strides": {"list": {"i": ["1", "1", "1", "1"]}}, "data_format": {"s": "TkhXQw=="}, "T": {"type": "DT_FLOAT"}, "explicit_paddings": {"list": {}}}}, {"name": "model/tfsppf/concat", "op": "ConcatV2", "input": ["model/tfsppf/tf_conv_31/mul_1", "model/tfsppf/max_pooling2d/MaxPool", "model/tfsppf/max_pooling2d/MaxPool_1", "model/tfsppf/max_pooling2d/MaxPool_2", "model/tfsppf/concat/axis"], "attr": {"Tidx": {"type": "DT_INT32"}, "N": {"i": "4"}, "T": {"type": "DT_FLOAT"}}}, {"name": "model/tfsppf/tf_conv_32/conv2d_32/BiasAdd", "op": "_FusedConv2D", "input": ["model/tfsppf/concat", "model/tfsppf/tf_conv_32/conv2d_32/Conv2D/ReadVariableOp", "model/tfsppf/tf_conv_32/conv2d_32/BiasAdd/ReadVariableOp"], "device": "/device:CPU:0", "attr": {"explicit_paddings": {"list": {}}, "T": {"type": "DT_FLOAT"}, "num_args": {"i": "1"}, "use_cudnn_on_gpu": {"b": true}, "fused_ops": {"list": {"s": ["Qmlhc0FkZA=="]}}, "filter_format": {"s": "SFdJTw=="}, "leakyrelu_alpha": {"f": 0.2}, "padding": {"s": "U0FNRQ=="}, "data_format": {"s": "TkhXQw=="}, "TArgs": {"list": {"type": ["DT_FLOAT"]}}, "strides": {"list": {"i": ["1", "1", "1", "1"]}}, "epsilon": {"f": 0.0}, "dilations": {"list": {"i": ["1", "1", "1", "1"]}}, "num_host_args": {"i": "0"}}}, {"name": "model/tfsppf/tf_conv_32/Sigmoid", "op": "Sigmoid", "input": ["model/tfsppf/tf_conv_32/conv2d_32/BiasAdd"], "attr": {"T": {"type": "DT_FLOAT"}}}, {"name": "model/tfsppf/tf_conv_32/mul_1", "op": "Mul", "input": ["model/tfsppf/tf_conv_32/conv2d_32/BiasAdd", "model/tfsppf/tf_conv_32/Sigmoid"], "attr": {"T": {"type": "DT_FLOAT"}}}, {"name": "model/tf_conv_33/conv2d_33/BiasAdd", "op": "_FusedConv2D", "input": ["model/tfsppf/tf_conv_32/mul_1", "model/tf_conv_33/conv2d_33/Conv2D/ReadVariableOp", "model/tf_conv_33/conv2d_33/BiasAdd/ReadVariableOp"], "device": "/device:CPU:0", "attr": {"epsilon": {"f": 0.0}, "leakyrelu_alpha": {"f": 0.2}, "explicit_paddings": {"list": {}}, "strides": {"list": {"i": ["1", "1", "1", "1"]}}, "use_cudnn_on_gpu": {"b": true}, "T": {"type": "DT_FLOAT"}, "num_args": {"i": "1"}, "dilations": {"list": {"i": ["1", "1", "1", "1"]}}, "num_host_args": {"i": "0"}, "padding": {"s": "U0FNRQ=="}, "filter_format": {"s": "SFdJTw=="}, "fused_ops": {"list": {"s": ["Qmlhc0FkZA=="]}}, "data_format": {"s": "TkhXQw=="}, "TArgs": {"list": {"type": ["DT_FLOAT"]}}}}, {"name": "model/tf_conv_33/Sigmoid", "op": "Sigmoid", "input": ["model/tf_conv_33/conv2d_33/BiasAdd"], "attr": {"T": {"type": "DT_FLOAT"}}}, {"name": "model/tf_conv_33/mul_1", "op": "Mul", "input": ["model/tf_conv_33/conv2d_33/BiasAdd", "model/tf_conv_33/Sigmoid"], "attr": {"T": {"type": "DT_FLOAT"}}}, {"name": "model/tf_upsample/resize/ResizeNearestNeighbor", "op": "ResizeNearestNeighbor", "input": ["model/tf_conv_33/mul_1", "model/tf_upsample/resize/size"], "attr": {"half_pixel_centers": {"b": true}, "align_corners": {"b": false}, "T": {"type": "DT_FLOAT"}}}, {"name": "model/tf_concat/concat", "op": "ConcatV2", "input": ["model/tf_upsample/resize/ResizeNearestNeighbor", "model/tfc3_2/tf_conv_18/mul_1", "model/tf_concat/concat/axis"], "attr": {"N": {"i": "2"}, "Tidx": {"type": "DT_INT32"}, "T": {"type": "DT_FLOAT"}}}, {"name": "model/tfc3_4/tf_conv_34/conv2d_34/BiasAdd", "op": "_FusedConv2D", "input": ["model/tf_concat/concat", "model/tfc3_4/tf_conv_34/conv2d_34/Conv2D/ReadVariableOp", "model/tfc3_4/tf_conv_34/conv2d_34/BiasAdd/ReadVariableOp"], "device": "/device:CPU:0", "attr": {"dilations": {"list": {"i": ["1", "1", "1", "1"]}}, "T": {"type": "DT_FLOAT"}, "padding": {"s": "U0FNRQ=="}, "epsilon": {"f": 0.0}, "num_args": {"i": "1"}, "num_host_args": {"i": "0"}, "data_format": {"s": "TkhXQw=="}, "use_cudnn_on_gpu": {"b": true}, "leakyrelu_alpha": {"f": 0.2}, "explicit_paddings": {"list": {}}, "fused_ops": {"list": {"s": ["Qmlhc0FkZA=="]}}, "TArgs": {"list": {"type": ["DT_FLOAT"]}}, "strides": {"list": {"i": ["1", "1", "1", "1"]}}, "filter_format": {"s": "SFdJTw=="}}}, {"name": "model/tfc3_4/tf_conv_35/conv2d_35/BiasAdd", "op": "_FusedConv2D", "input": ["model/tf_concat/concat", "model/tfc3_4/tf_conv_35/conv2d_35/Conv2D/ReadVariableOp", "model/tfc3_4/tf_conv_35/conv2d_35/BiasAdd/ReadVariableOp"], "device": "/device:CPU:0", "attr": {"padding": {"s": "U0FNRQ=="}, "epsilon": {"f": 0.0}, "data_format": {"s": "TkhXQw=="}, "explicit_paddings": {"list": {}}, "fused_ops": {"list": {"s": ["Qmlhc0FkZA=="]}}, "T": {"type": "DT_FLOAT"}, "leakyrelu_alpha": {"f": 0.2}, "TArgs": {"list": {"type": ["DT_FLOAT"]}}, "use_cudnn_on_gpu": {"b": true}, "num_host_args": {"i": "0"}, "num_args": {"i": "1"}, "filter_format": {"s": "SFdJTw=="}, "dilations": {"list": {"i": ["1", "1", "1", "1"]}}, "strides": {"list": {"i": ["1", "1", "1", "1"]}}}}, {"name": "model/tfc3_4/tf_conv_34/Sigmoid", "op": "Sigmoid", "input": ["model/tfc3_4/tf_conv_34/conv2d_34/BiasAdd"], "attr": {"T": {"type": "DT_FLOAT"}}}, {"name": "model/tfc3_4/tf_conv_35/Sigmoid", "op": "Sigmoid", "input": ["model/tfc3_4/tf_conv_35/conv2d_35/BiasAdd"], "attr": {"T": {"type": "DT_FLOAT"}}}, {"name": "model/tfc3_4/tf_conv_34/mul_1", "op": "Mul", "input": ["model/tfc3_4/tf_conv_34/conv2d_34/BiasAdd", "model/tfc3_4/tf_conv_34/Sigmoid"], "attr": {"T": {"type": "DT_FLOAT"}}}, {"name": "model/tfc3_4/tf_conv_35/mul_1", "op": "Mul", "input": ["model/tfc3_4/tf_conv_35/conv2d_35/BiasAdd", "model/tfc3_4/tf_conv_35/Sigmoid"], "attr": {"T": {"type": "DT_FLOAT"}}}, {"name": "model/tfc3_4/sequential_9/tf_bottleneck_7/tf_conv_37/conv2d_37/BiasAdd", "op": "_FusedConv2D", "input": ["model/tfc3_4/tf_conv_34/mul_1", "model/tfc3_4/sequential_9/tf_bottleneck_7/tf_conv_37/conv2d_37/Conv2D/ReadVariableOp", "model/tfc3_4/sequential_9/tf_bottleneck_7/tf_conv_37/conv2d_37/BiasAdd/ReadVariableOp"], "device": "/device:CPU:0", "attr": {"data_format": {"s": "TkhXQw=="}, "strides": {"list": {"i": ["1", "1", "1", "1"]}}, "padding": {"s": "U0FNRQ=="}, "dilations": {"list": {"i": ["1", "1", "1", "1"]}}, "explicit_paddings": {"list": {}}, "num_host_args": {"i": "0"}, "filter_format": {"s": "SFdJTw=="}, "use_cudnn_on_gpu": {"b": true}, "epsilon": {"f": 0.0}, "leakyrelu_alpha": {"f": 0.2}, "fused_ops": {"list": {"s": ["Qmlhc0FkZA=="]}}, "num_args": {"i": "1"}, "TArgs": {"list": {"type": ["DT_FLOAT"]}}, "T": {"type": "DT_FLOAT"}}}, {"name": "model/tfc3_4/sequential_9/tf_bottleneck_7/tf_conv_37/Sigmoid", "op": "Sigmoid", "input": ["model/tfc3_4/sequential_9/tf_bottleneck_7/tf_conv_37/conv2d_37/BiasAdd"], "attr": {"T": {"type": "DT_FLOAT"}}}, {"name": "model/tfc3_4/sequential_9/tf_bottleneck_7/tf_conv_37/mul_1", "op": "Mul", "input": ["model/tfc3_4/sequential_9/tf_bottleneck_7/tf_conv_37/conv2d_37/BiasAdd", "model/tfc3_4/sequential_9/tf_bottleneck_7/tf_conv_37/Sigmoid"], "attr": {"T": {"type": "DT_FLOAT"}}}, {"name": "model/tfc3_4/sequential_9/tf_bottleneck_7/tf_conv_38/conv2d_38/BiasAdd", "op": "_FusedConv2D", "input": ["model/tfc3_4/sequential_9/tf_bottleneck_7/tf_conv_37/mul_1", "model/tfc3_4/sequential_9/tf_bottleneck_7/tf_conv_38/conv2d_38/Conv2D/ReadVariableOp", "model/tfc3_4/sequential_9/tf_bottleneck_7/tf_conv_38/conv2d_38/BiasAdd/ReadVariableOp"], "device": "/device:CPU:0", "attr": {"epsilon": {"f": 0.0}, "dilations": {"list": {"i": ["1", "1", "1", "1"]}}, "leakyrelu_alpha": {"f": 0.2}, "TArgs": {"list": {"type": ["DT_FLOAT"]}}, "T": {"type": "DT_FLOAT"}, "filter_format": {"s": "SFdJTw=="}, "use_cudnn_on_gpu": {"b": true}, "padding": {"s": "U0FNRQ=="}, "num_args": {"i": "1"}, "num_host_args": {"i": "0"}, "fused_ops": {"list": {"s": ["Qmlhc0FkZA=="]}}, "strides": {"list": {"i": ["1", "1", "1", "1"]}}, "explicit_paddings": {"list": {}}, "data_format": {"s": "TkhXQw=="}}}, {"name": "model/tfc3_4/sequential_9/tf_bottleneck_7/tf_conv_38/Sigmoid", "op": "Sigmoid", "input": ["model/tfc3_4/sequential_9/tf_bottleneck_7/tf_conv_38/conv2d_38/BiasAdd"], "attr": {"T": {"type": "DT_FLOAT"}}}, {"name": "model/tfc3_4/sequential_9/tf_bottleneck_7/tf_conv_38/mul_1", "op": "Mul", "input": ["model/tfc3_4/sequential_9/tf_bottleneck_7/tf_conv_38/conv2d_38/BiasAdd", "model/tfc3_4/sequential_9/tf_bottleneck_7/tf_conv_38/Sigmoid"], "attr": {"T": {"type": "DT_FLOAT"}}}, {"name": "model/tfc3_4/concat", "op": "ConcatV2", "input": ["model/tfc3_4/sequential_9/tf_bottleneck_7/tf_conv_38/mul_1", "model/tfc3_4/tf_conv_35/mul_1", "model/tfc3_4/concat/axis"], "attr": {"Tidx": {"type": "DT_INT32"}, "T": {"type": "DT_FLOAT"}, "N": {"i": "2"}}}, {"name": "model/tfc3_4/tf_conv_36/conv2d_36/BiasAdd", "op": "_FusedConv2D", "input": ["model/tfc3_4/concat", "model/tfc3_4/tf_conv_36/conv2d_36/Conv2D/ReadVariableOp", "model/tfc3_4/tf_conv_36/conv2d_36/BiasAdd/ReadVariableOp"], "device": "/device:CPU:0", "attr": {"fused_ops": {"list": {"s": ["Qmlhc0FkZA=="]}}, "leakyrelu_alpha": {"f": 0.2}, "dilations": {"list": {"i": ["1", "1", "1", "1"]}}, "epsilon": {"f": 0.0}, "num_args": {"i": "1"}, "padding": {"s": "U0FNRQ=="}, "num_host_args": {"i": "0"}, "explicit_paddings": {"list": {}}, "use_cudnn_on_gpu": {"b": true}, "T": {"type": "DT_FLOAT"}, "strides": {"list": {"i": ["1", "1", "1", "1"]}}, "TArgs": {"list": {"type": ["DT_FLOAT"]}}, "filter_format": {"s": "SFdJTw=="}, "data_format": {"s": "TkhXQw=="}}}, {"name": "model/tfc3_4/tf_conv_36/Sigmoid", "op": "Sigmoid", "input": ["model/tfc3_4/tf_conv_36/conv2d_36/BiasAdd"], "attr": {"T": {"type": "DT_FLOAT"}}}, {"name": "model/tfc3_4/tf_conv_36/mul_1", "op": "Mul", "input": ["model/tfc3_4/tf_conv_36/conv2d_36/BiasAdd", "model/tfc3_4/tf_conv_36/Sigmoid"], "attr": {"T": {"type": "DT_FLOAT"}}}, {"name": "model/tf_conv_39/conv2d_39/BiasAdd", "op": "_FusedConv2D", "input": ["model/tfc3_4/tf_conv_36/mul_1", "model/tf_conv_39/conv2d_39/Conv2D/ReadVariableOp", "model/tf_conv_39/conv2d_39/BiasAdd/ReadVariableOp"], "device": "/device:CPU:0", "attr": {"padding": {"s": "U0FNRQ=="}, "explicit_paddings": {"list": {}}, "T": {"type": "DT_FLOAT"}, "num_host_args": {"i": "0"}, "strides": {"list": {"i": ["1", "1", "1", "1"]}}, "TArgs": {"list": {"type": ["DT_FLOAT"]}}, "epsilon": {"f": 0.0}, "leakyrelu_alpha": {"f": 0.2}, "fused_ops": {"list": {"s": ["Qmlhc0FkZA=="]}}, "num_args": {"i": "1"}, "data_format": {"s": "TkhXQw=="}, "filter_format": {"s": "SFdJTw=="}, "use_cudnn_on_gpu": {"b": true}, "dilations": {"list": {"i": ["1", "1", "1", "1"]}}}}, {"name": "model/tf_conv_39/Sigmoid", "op": "Sigmoid", "input": ["model/tf_conv_39/conv2d_39/BiasAdd"], "attr": {"T": {"type": "DT_FLOAT"}}}, {"name": "model/tf_conv_39/mul_1", "op": "Mul", "input": ["model/tf_conv_39/conv2d_39/BiasAdd", "model/tf_conv_39/Sigmoid"], "attr": {"T": {"type": "DT_FLOAT"}}}, {"name": "model/tf_upsample_1/resize/ResizeNearestNeighbor", "op": "ResizeNearestNeighbor", "input": ["model/tf_conv_39/mul_1", "model/tf_upsample_1/resize/size"], "attr": {"half_pixel_centers": {"b": true}, "T": {"type": "DT_FLOAT"}, "align_corners": {"b": false}}}, {"name": "model/tf_concat_1/concat", "op": "ConcatV2", "input": ["model/tf_upsample_1/resize/ResizeNearestNeighbor", "model/tfc3_1/tf_conv_10/mul_1", "model/tf_concat_1/concat/axis"], "attr": {"Tidx": {"type": "DT_INT32"}, "N": {"i": "2"}, "T": {"type": "DT_FLOAT"}}}, {"name": "model/tfc3_5/tf_conv_40/conv2d_40/BiasAdd", "op": "_FusedConv2D", "input": ["model/tf_concat_1/concat", "model/tfc3_5/tf_conv_40/conv2d_40/Conv2D/ReadVariableOp", "model/tfc3_5/tf_conv_40/conv2d_40/BiasAdd/ReadVariableOp"], "device": "/device:CPU:0", "attr": {"T": {"type": "DT_FLOAT"}, "dilations": {"list": {"i": ["1", "1", "1", "1"]}}, "fused_ops": {"list": {"s": ["Qmlhc0FkZA=="]}}, "filter_format": {"s": "SFdJTw=="}, "TArgs": {"list": {"type": ["DT_FLOAT"]}}, "data_format": {"s": "TkhXQw=="}, "explicit_paddings": {"list": {}}, "num_host_args": {"i": "0"}, "num_args": {"i": "1"}, "use_cudnn_on_gpu": {"b": true}, "padding": {"s": "U0FNRQ=="}, "leakyrelu_alpha": {"f": 0.2}, "epsilon": {"f": 0.0}, "strides": {"list": {"i": ["1", "1", "1", "1"]}}}}, {"name": "model/tfc3_5/tf_conv_41/conv2d_41/BiasAdd", "op": "_FusedConv2D", "input": ["model/tf_concat_1/concat", "model/tfc3_5/tf_conv_41/conv2d_41/Conv2D/ReadVariableOp", "model/tfc3_5/tf_conv_41/conv2d_41/BiasAdd/ReadVariableOp"], "device": "/device:CPU:0", "attr": {"use_cudnn_on_gpu": {"b": true}, "TArgs": {"list": {"type": ["DT_FLOAT"]}}, "num_host_args": {"i": "0"}, "num_args": {"i": "1"}, "explicit_paddings": {"list": {}}, "strides": {"list": {"i": ["1", "1", "1", "1"]}}, "dilations": {"list": {"i": ["1", "1", "1", "1"]}}, "padding": {"s": "U0FNRQ=="}, "epsilon": {"f": 0.0}, "data_format": {"s": "TkhXQw=="}, "fused_ops": {"list": {"s": ["Qmlhc0FkZA=="]}}, "T": {"type": "DT_FLOAT"}, "leakyrelu_alpha": {"f": 0.2}, "filter_format": {"s": "SFdJTw=="}}}, {"name": "model/tfc3_5/tf_conv_40/Sigmoid", "op": "Sigmoid", "input": ["model/tfc3_5/tf_conv_40/conv2d_40/BiasAdd"], "attr": {"T": {"type": "DT_FLOAT"}}}, {"name": "model/tfc3_5/tf_conv_41/Sigmoid", "op": "Sigmoid", "input": ["model/tfc3_5/tf_conv_41/conv2d_41/BiasAdd"], "attr": {"T": {"type": "DT_FLOAT"}}}, {"name": "model/tfc3_5/tf_conv_40/mul_1", "op": "Mul", "input": ["model/tfc3_5/tf_conv_40/conv2d_40/BiasAdd", "model/tfc3_5/tf_conv_40/Sigmoid"], "attr": {"T": {"type": "DT_FLOAT"}}}, {"name": "model/tfc3_5/tf_conv_41/mul_1", "op": "Mul", "input": ["model/tfc3_5/tf_conv_41/conv2d_41/BiasAdd", "model/tfc3_5/tf_conv_41/Sigmoid"], "attr": {"T": {"type": "DT_FLOAT"}}}, {"name": "model/tfc3_5/sequential_10/tf_bottleneck_8/tf_conv_43/conv2d_43/BiasAdd", "op": "_FusedConv2D", "input": ["model/tfc3_5/tf_conv_40/mul_1", "model/tfc3_5/sequential_10/tf_bottleneck_8/tf_conv_43/conv2d_43/Conv2D/ReadVariableOp", "model/tfc3_5/sequential_10/tf_bottleneck_8/tf_conv_43/conv2d_43/BiasAdd/ReadVariableOp"], "device": "/device:CPU:0", "attr": {"strides": {"list": {"i": ["1", "1", "1", "1"]}}, "dilations": {"list": {"i": ["1", "1", "1", "1"]}}, "leakyrelu_alpha": {"f": 0.2}, "fused_ops": {"list": {"s": ["Qmlhc0FkZA=="]}}, "epsilon": {"f": 0.0}, "explicit_paddings": {"list": {}}, "padding": {"s": "U0FNRQ=="}, "T": {"type": "DT_FLOAT"}, "use_cudnn_on_gpu": {"b": true}, "TArgs": {"list": {"type": ["DT_FLOAT"]}}, "num_args": {"i": "1"}, "data_format": {"s": "TkhXQw=="}, "filter_format": {"s": "SFdJTw=="}, "num_host_args": {"i": "0"}}}, {"name": "model/tfc3_5/sequential_10/tf_bottleneck_8/tf_conv_43/Sigmoid", "op": "Sigmoid", "input": ["model/tfc3_5/sequential_10/tf_bottleneck_8/tf_conv_43/conv2d_43/BiasAdd"], "attr": {"T": {"type": "DT_FLOAT"}}}, {"name": "model/tfc3_5/sequential_10/tf_bottleneck_8/tf_conv_43/mul_1", "op": "Mul", "input": ["model/tfc3_5/sequential_10/tf_bottleneck_8/tf_conv_43/conv2d_43/BiasAdd", "model/tfc3_5/sequential_10/tf_bottleneck_8/tf_conv_43/Sigmoid"], "attr": {"T": {"type": "DT_FLOAT"}}}, {"name": "model/tfc3_5/sequential_10/tf_bottleneck_8/tf_conv_44/conv2d_44/BiasAdd", "op": "_FusedConv2D", "input": ["model/tfc3_5/sequential_10/tf_bottleneck_8/tf_conv_43/mul_1", "model/tfc3_5/sequential_10/tf_bottleneck_8/tf_conv_44/conv2d_44/Conv2D/ReadVariableOp", "model/tfc3_5/sequential_10/tf_bottleneck_8/tf_conv_44/conv2d_44/BiasAdd/ReadVariableOp"], "device": "/device:CPU:0", "attr": {"num_host_args": {"i": "0"}, "TArgs": {"list": {"type": ["DT_FLOAT"]}}, "filter_format": {"s": "SFdJTw=="}, "T": {"type": "DT_FLOAT"}, "strides": {"list": {"i": ["1", "1", "1", "1"]}}, "epsilon": {"f": 0.0}, "explicit_paddings": {"list": {}}, "fused_ops": {"list": {"s": ["Qmlhc0FkZA=="]}}, "padding": {"s": "U0FNRQ=="}, "num_args": {"i": "1"}, "leakyrelu_alpha": {"f": 0.2}, "dilations": {"list": {"i": ["1", "1", "1", "1"]}}, "data_format": {"s": "TkhXQw=="}, "use_cudnn_on_gpu": {"b": true}}}, {"name": "model/tfc3_5/sequential_10/tf_bottleneck_8/tf_conv_44/Sigmoid", "op": "Sigmoid", "input": ["model/tfc3_5/sequential_10/tf_bottleneck_8/tf_conv_44/conv2d_44/BiasAdd"], "attr": {"T": {"type": "DT_FLOAT"}}}, {"name": "model/tfc3_5/sequential_10/tf_bottleneck_8/tf_conv_44/mul_1", "op": "Mul", "input": ["model/tfc3_5/sequential_10/tf_bottleneck_8/tf_conv_44/conv2d_44/BiasAdd", "model/tfc3_5/sequential_10/tf_bottleneck_8/tf_conv_44/Sigmoid"], "attr": {"T": {"type": "DT_FLOAT"}}}, {"name": "model/tfc3_5/concat", "op": "ConcatV2", "input": ["model/tfc3_5/sequential_10/tf_bottleneck_8/tf_conv_44/mul_1", "model/tfc3_5/tf_conv_41/mul_1", "model/tfc3_5/concat/axis"], "attr": {"Tidx": {"type": "DT_INT32"}, "N": {"i": "2"}, "T": {"type": "DT_FLOAT"}}}, {"name": "model/tfc3_5/tf_conv_42/conv2d_42/BiasAdd", "op": "_FusedConv2D", "input": ["model/tfc3_5/concat", "model/tfc3_5/tf_conv_42/conv2d_42/Conv2D/ReadVariableOp", "model/tfc3_5/tf_conv_42/conv2d_42/BiasAdd/ReadVariableOp"], "device": "/device:CPU:0", "attr": {"strides": {"list": {"i": ["1", "1", "1", "1"]}}, "fused_ops": {"list": {"s": ["Qmlhc0FkZA=="]}}, "dilations": {"list": {"i": ["1", "1", "1", "1"]}}, "explicit_paddings": {"list": {}}, "epsilon": {"f": 0.0}, "padding": {"s": "U0FNRQ=="}, "num_args": {"i": "1"}, "leakyrelu_alpha": {"f": 0.2}, "filter_format": {"s": "SFdJTw=="}, "data_format": {"s": "TkhXQw=="}, "TArgs": {"list": {"type": ["DT_FLOAT"]}}, "num_host_args": {"i": "0"}, "T": {"type": "DT_FLOAT"}, "use_cudnn_on_gpu": {"b": true}}}, {"name": "model/tfc3_5/tf_conv_42/Sigmoid", "op": "Sigmoid", "input": ["model/tfc3_5/tf_conv_42/conv2d_42/BiasAdd"], "attr": {"T": {"type": "DT_FLOAT"}}}, {"name": "model/tfc3_5/tf_conv_42/mul_1", "op": "Mul", "input": ["model/tfc3_5/tf_conv_42/conv2d_42/BiasAdd", "model/tfc3_5/tf_conv_42/Sigmoid"], "attr": {"T": {"type": "DT_FLOAT"}}}, {"name": "model/tf_detect/tf_conv2d/conv2d_57/BiasAdd", "op": "_FusedConv2D", "input": ["model/tfc3_5/tf_conv_42/mul_1", "model/tf_detect/tf_conv2d/conv2d_57/Conv2D/ReadVariableOp", "model/tf_detect/tf_conv2d/conv2d_57/BiasAdd/ReadVariableOp"], "device": "/device:CPU:0", "attr": {"TArgs": {"list": {"type": ["DT_FLOAT"]}}, "leakyrelu_alpha": {"f": 0.2}, "num_args": {"i": "1"}, "T": {"type": "DT_FLOAT"}, "num_host_args": {"i": "0"}, "filter_format": {"s": "SFdJTw=="}, "data_format": {"s": "TkhXQw=="}, "explicit_paddings": {"list": {}}, "fused_ops": {"list": {"s": ["Qmlhc0FkZA=="]}}, "strides": {"list": {"i": ["1", "1", "1", "1"]}}, "epsilon": {"f": 0.0}, "dilations": {"list": {"i": ["1", "1", "1", "1"]}}, "padding": {"s": "VkFMSUQ="}, "use_cudnn_on_gpu": {"b": true}}}, {"name": "model/tf_conv_45/sequential_11/tf_pad_5/Pad", "op": "Pad", "input": ["model/tfc3_5/tf_conv_42/mul_1", "model/tf_conv_45/sequential_11/tf_pad_5/Pad/paddings"], "attr": {"Tpaddings": {"type": "DT_INT32"}, "T": {"type": "DT_FLOAT"}}}, {"name": "model/tf_detect/Reshape", "op": "Reshape", "input": ["model/tf_detect/tf_conv2d/conv2d_57/BiasAdd", "model/tf_detect/Reshape/shape_1"], "attr": {"Tshape": {"type": "DT_INT32"}, "T": {"type": "DT_FLOAT"}}}, {"name": "model/tf_conv_45/sequential_11/conv2d_45/BiasAdd", "op": "_FusedConv2D", "input": ["model/tf_conv_45/sequential_11/tf_pad_5/Pad", "model/tf_conv_45/sequential_11/conv2d_45/Conv2D/ReadVariableOp", "model/tf_conv_45/sequential_11/conv2d_45/BiasAdd/ReadVariableOp"], "device": "/device:CPU:0", "attr": {"T": {"type": "DT_FLOAT"}, "num_args": {"i": "1"}, "epsilon": {"f": 0.0}, "dilations": {"list": {"i": ["1", "1", "1", "1"]}}, "fused_ops": {"list": {"s": ["Qmlhc0FkZA=="]}}, "padding": {"s": "VkFMSUQ="}, "strides": {"list": {"i": ["1", "2", "2", "1"]}}, "TArgs": {"list": {"type": ["DT_FLOAT"]}}, "filter_format": {"s": "SFdJTw=="}, "explicit_paddings": {"list": {}}, "use_cudnn_on_gpu": {"b": true}, "num_host_args": {"i": "0"}, "data_format": {"s": "TkhXQw=="}, "leakyrelu_alpha": {"f": 0.2}}}, {"name": "model/tf_detect/strided_slice_3", "op": "StridedSlice", "input": ["model/tf_detect/Reshape", "model/tf_detect/strided_slice_3/stack", "model/tf_detect/strided_slice_3/stack_1", "model/tf_detect/strided_slice_3/stack_2"], "attr": {"Index": {"type": "DT_INT32"}, "begin_mask": {"i": "0"}, "end_mask": {"i": "0"}, "T": {"type": "DT_FLOAT"}, "ellipsis_mask": {"i": "1"}, "new_axis_mask": {"i": "0"}, "shrink_axis_mask": {"i": "0"}}}, {"name": "model/tf_detect/strided_slice_5", "op": "StridedSlice", "input": ["model/tf_detect/Reshape", "model/tf_detect/strided_slice_5/stack", "model/tf_detect/strided_slice_5/stack_1", "model/tf_detect/strided_slice_5/stack_2"], "attr": {"end_mask": {"i": "0"}, "shrink_axis_mask": {"i": "0"}, "begin_mask": {"i": "0"}, "ellipsis_mask": {"i": "1"}, "Index": {"type": "DT_INT32"}, "new_axis_mask": {"i": "0"}, "T": {"type": "DT_FLOAT"}}}, {"name": "model/tf_detect/strided_slice_6", "op": "StridedSlice", "input": ["model/tf_detect/Reshape", "model/tf_detect/strided_slice_6/stack", "model/tf_detect/strided_slice_6/stack_1", "model/tf_detect/strided_slice_6/stack_2"], "attr": {"Index": {"type": "DT_INT32"}, "begin_mask": {"i": "0"}, "shrink_axis_mask": {"i": "0"}, "T": {"type": "DT_FLOAT"}, "end_mask": {"i": "0"}, "new_axis_mask": {"i": "0"}, "ellipsis_mask": {"i": "1"}}}, {"name": "model/tf_detect/strided_slice_7", "op": "StridedSlice", "input": ["model/tf_detect/Reshape", "model/tf_detect/strided_slice_7/stack", "model/tf_detect/strided_slice_7/stack_1", "model/tf_detect/strided_slice_7/stack_2"], "attr": {"shrink_axis_mask": {"i": "0"}, "new_axis_mask": {"i": "0"}, "T": {"type": "DT_FLOAT"}, "ellipsis_mask": {"i": "1"}, "end_mask": {"i": "2"}, "begin_mask": {"i": "0"}, "Index": {"type": "DT_INT32"}}}, {"name": "model/tf_conv_45/Sigmoid", "op": "Sigmoid", "input": ["model/tf_conv_45/sequential_11/conv2d_45/BiasAdd"], "attr": {"T": {"type": "DT_FLOAT"}}}, {"name": "model/tf_detect/Sigmoid", "op": "Sigmoid", "input": ["model/tf_detect/strided_slice_3"], "attr": {"T": {"type": "DT_FLOAT"}}}, {"name": "model/tf_detect/Sigmoid_1", "op": "Sigmoid", "input": ["model/tf_detect/strided_slice_5"], "attr": {"T": {"type": "DT_FLOAT"}}}, {"name": "model/tf_detect/Sigmoid_2", "op": "Sigmoid", "input": ["model/tf_detect/strided_slice_6"], "attr": {"T": {"type": "DT_FLOAT"}}}, {"name": "model/tf_conv_45/mul_1", "op": "Mul", "input": ["model/tf_conv_45/sequential_11/conv2d_45/BiasAdd", "model/tf_conv_45/Sigmoid"], "attr": {"T": {"type": "DT_FLOAT"}}}, {"name": "model/tf_detect/mul_2", "op": "Mul", "input": ["model/tf_detect/Sigmoid", "model/tf_detect/mul_2/y"], "attr": {"T": {"type": "DT_FLOAT"}}}, {"name": "model/tf_detect/pow", "op": "Square", "input": ["model/tf_detect/Sigmoid_1"], "attr": {"T": {"type": "DT_FLOAT"}}}, {"name": "model/tf_concat_2/concat", "op": "ConcatV2", "input": ["model/tf_conv_45/mul_1", "model/tf_conv_39/mul_1", "model/tf_concat_2/concat/axis"], "attr": {"N": {"i": "2"}, "T": {"type": "DT_FLOAT"}, "Tidx": {"type": "DT_INT32"}}}, {"name": "model/tf_detect/add", "op": "AddV2", "input": ["model/tf_detect/mul_2", "model/tf_detect/sub"], "attr": {"T": {"type": "DT_FLOAT"}}}, {"name": "model/tf_detect/truediv_1", "op": "Mul", "input": ["model/tf_detect/pow", "model/tf_detect/mul_4"], "attr": {"T": {"type": "DT_FLOAT"}}}, {"name": "model/tfc3_6/tf_conv_46/conv2d_46/BiasAdd", "op": "_FusedConv2D", "input": ["model/tf_concat_2/concat", "model/tfc3_6/tf_conv_46/conv2d_46/Conv2D/ReadVariableOp", "model/tfc3_6/tf_conv_46/conv2d_46/BiasAdd/ReadVariableOp"], "device": "/device:CPU:0", "attr": {"fused_ops": {"list": {"s": ["Qmlhc0FkZA=="]}}, "data_format": {"s": "TkhXQw=="}, "TArgs": {"list": {"type": ["DT_FLOAT"]}}, "epsilon": {"f": 0.0}, "strides": {"list": {"i": ["1", "1", "1", "1"]}}, "T": {"type": "DT_FLOAT"}, "filter_format": {"s": "SFdJTw=="}, "use_cudnn_on_gpu": {"b": true}, "num_host_args": {"i": "0"}, "padding": {"s": "U0FNRQ=="}, "leakyrelu_alpha": {"f": 0.2}, "num_args": {"i": "1"}, "explicit_paddings": {"list": {}}, "dilations": {"list": {"i": ["1", "1", "1", "1"]}}}}, {"name": "model/tfc3_6/tf_conv_47/conv2d_47/BiasAdd", "op": "_FusedConv2D", "input": ["model/tf_concat_2/concat", "model/tfc3_6/tf_conv_47/conv2d_47/Conv2D/ReadVariableOp", "model/tfc3_6/tf_conv_47/conv2d_47/BiasAdd/ReadVariableOp"], "device": "/device:CPU:0", "attr": {"TArgs": {"list": {"type": ["DT_FLOAT"]}}, "strides": {"list": {"i": ["1", "1", "1", "1"]}}, "fused_ops": {"list": {"s": ["Qmlhc0FkZA=="]}}, "padding": {"s": "U0FNRQ=="}, "num_host_args": {"i": "0"}, "filter_format": {"s": "SFdJTw=="}, "T": {"type": "DT_FLOAT"}, "explicit_paddings": {"list": {}}, "num_args": {"i": "1"}, "dilations": {"list": {"i": ["1", "1", "1", "1"]}}, "epsilon": {"f": 0.0}, "data_format": {"s": "TkhXQw=="}, "use_cudnn_on_gpu": {"b": true}, "leakyrelu_alpha": {"f": 0.2}}}, {"name": "model/tf_detect/truediv", "op": "Mul", "input": ["model/tf_detect/add", "model/tf_detect/mul_3"], "attr": {"T": {"type": "DT_FLOAT"}}}, {"name": "model/tfc3_6/tf_conv_46/Sigmoid", "op": "Sigmoid", "input": ["model/tfc3_6/tf_conv_46/conv2d_46/BiasAdd"], "attr": {"T": {"type": "DT_FLOAT"}}}, {"name": "model/tfc3_6/tf_conv_47/Sigmoid", "op": "Sigmoid", "input": ["model/tfc3_6/tf_conv_47/conv2d_47/BiasAdd"], "attr": {"T": {"type": "DT_FLOAT"}}}, {"name": "model/tf_detect/concat", "op": "ConcatV2", "input": ["model/tf_detect/truediv", "model/tf_detect/truediv_1", "model/tf_detect/Sigmoid_2", "model/tf_detect/strided_slice_7", "model/tf_detect/concat/axis"], "attr": {"T": {"type": "DT_FLOAT"}, "Tidx": {"type": "DT_INT32"}, "N": {"i": "4"}}}, {"name": "model/tfc3_6/tf_conv_46/mul_1", "op": "Mul", "input": ["model/tfc3_6/tf_conv_46/conv2d_46/BiasAdd", "model/tfc3_6/tf_conv_46/Sigmoid"], "attr": {"T": {"type": "DT_FLOAT"}}}, {"name": "model/tfc3_6/tf_conv_47/mul_1", "op": "Mul", "input": ["model/tfc3_6/tf_conv_47/conv2d_47/BiasAdd", "model/tfc3_6/tf_conv_47/Sigmoid"], "attr": {"T": {"type": "DT_FLOAT"}}}, {"name": "model/tf_detect/Reshape_1", "op": "Reshape", "input": ["model/tf_detect/concat", "model/tf_detect/Reshape_1/shape_1"], "attr": {"T": {"type": "DT_FLOAT"}, "Tshape": {"type": "DT_INT32"}}}, {"name": "model/tfc3_6/sequential_12/tf_bottleneck_9/tf_conv_49/conv2d_49/BiasAdd", "op": "_FusedConv2D", "input": ["model/tfc3_6/tf_conv_46/mul_1", "model/tfc3_6/sequential_12/tf_bottleneck_9/tf_conv_49/conv2d_49/Conv2D/ReadVariableOp", "model/tfc3_6/sequential_12/tf_bottleneck_9/tf_conv_49/conv2d_49/BiasAdd/ReadVariableOp"], "device": "/device:CPU:0", "attr": {"fused_ops": {"list": {"s": ["Qmlhc0FkZA=="]}}, "TArgs": {"list": {"type": ["DT_FLOAT"]}}, "dilations": {"list": {"i": ["1", "1", "1", "1"]}}, "leakyrelu_alpha": {"f": 0.2}, "T": {"type": "DT_FLOAT"}, "use_cudnn_on_gpu": {"b": true}, "filter_format": {"s": "SFdJTw=="}, "num_args": {"i": "1"}, "explicit_paddings": {"list": {}}, "strides": {"list": {"i": ["1", "1", "1", "1"]}}, "padding": {"s": "U0FNRQ=="}, "data_format": {"s": "TkhXQw=="}, "epsilon": {"f": 0.0}, "num_host_args": {"i": "0"}}}, {"name": "model/tfc3_6/sequential_12/tf_bottleneck_9/tf_conv_49/Sigmoid", "op": "Sigmoid", "input": ["model/tfc3_6/sequential_12/tf_bottleneck_9/tf_conv_49/conv2d_49/BiasAdd"], "attr": {"T": {"type": "DT_FLOAT"}}}, {"name": "model/tfc3_6/sequential_12/tf_bottleneck_9/tf_conv_49/mul_1", "op": "Mul", "input": ["model/tfc3_6/sequential_12/tf_bottleneck_9/tf_conv_49/conv2d_49/BiasAdd", "model/tfc3_6/sequential_12/tf_bottleneck_9/tf_conv_49/Sigmoid"], "attr": {"T": {"type": "DT_FLOAT"}}}, {"name": "model/tfc3_6/sequential_12/tf_bottleneck_9/tf_conv_50/conv2d_50/BiasAdd", "op": "_FusedConv2D", "input": ["model/tfc3_6/sequential_12/tf_bottleneck_9/tf_conv_49/mul_1", "model/tfc3_6/sequential_12/tf_bottleneck_9/tf_conv_50/conv2d_50/Conv2D/ReadVariableOp", "model/tfc3_6/sequential_12/tf_bottleneck_9/tf_conv_50/conv2d_50/BiasAdd/ReadVariableOp"], "device": "/device:CPU:0", "attr": {"epsilon": {"f": 0.0}, "fused_ops": {"list": {"s": ["Qmlhc0FkZA=="]}}, "explicit_paddings": {"list": {}}, "num_host_args": {"i": "0"}, "num_args": {"i": "1"}, "filter_format": {"s": "SFdJTw=="}, "use_cudnn_on_gpu": {"b": true}, "strides": {"list": {"i": ["1", "1", "1", "1"]}}, "T": {"type": "DT_FLOAT"}, "data_format": {"s": "TkhXQw=="}, "TArgs": {"list": {"type": ["DT_FLOAT"]}}, "dilations": {"list": {"i": ["1", "1", "1", "1"]}}, "leakyrelu_alpha": {"f": 0.2}, "padding": {"s": "U0FNRQ=="}}}, {"name": "model/tfc3_6/sequential_12/tf_bottleneck_9/tf_conv_50/Sigmoid", "op": "Sigmoid", "input": ["model/tfc3_6/sequential_12/tf_bottleneck_9/tf_conv_50/conv2d_50/BiasAdd"], "attr": {"T": {"type": "DT_FLOAT"}}}, {"name": "model/tfc3_6/sequential_12/tf_bottleneck_9/tf_conv_50/mul_1", "op": "Mul", "input": ["model/tfc3_6/sequential_12/tf_bottleneck_9/tf_conv_50/conv2d_50/BiasAdd", "model/tfc3_6/sequential_12/tf_bottleneck_9/tf_conv_50/Sigmoid"], "attr": {"T": {"type": "DT_FLOAT"}}}, {"name": "model/tfc3_6/concat", "op": "ConcatV2", "input": ["model/tfc3_6/sequential_12/tf_bottleneck_9/tf_conv_50/mul_1", "model/tfc3_6/tf_conv_47/mul_1", "model/tfc3_6/concat/axis"], "attr": {"N": {"i": "2"}, "T": {"type": "DT_FLOAT"}, "Tidx": {"type": "DT_INT32"}}}, {"name": "model/tfc3_6/tf_conv_48/conv2d_48/BiasAdd", "op": "_FusedConv2D", "input": ["model/tfc3_6/concat", "model/tfc3_6/tf_conv_48/conv2d_48/Conv2D/ReadVariableOp", "model/tfc3_6/tf_conv_48/conv2d_48/BiasAdd/ReadVariableOp"], "device": "/device:CPU:0", "attr": {"fused_ops": {"list": {"s": ["Qmlhc0FkZA=="]}}, "strides": {"list": {"i": ["1", "1", "1", "1"]}}, "filter_format": {"s": "SFdJTw=="}, "T": {"type": "DT_FLOAT"}, "padding": {"s": "U0FNRQ=="}, "num_host_args": {"i": "0"}, "data_format": {"s": "TkhXQw=="}, "use_cudnn_on_gpu": {"b": true}, "dilations": {"list": {"i": ["1", "1", "1", "1"]}}, "explicit_paddings": {"list": {}}, "num_args": {"i": "1"}, "TArgs": {"list": {"type": ["DT_FLOAT"]}}, "leakyrelu_alpha": {"f": 0.2}, "epsilon": {"f": 0.0}}}, {"name": "model/tfc3_6/tf_conv_48/Sigmoid", "op": "Sigmoid", "input": ["model/tfc3_6/tf_conv_48/conv2d_48/BiasAdd"], "attr": {"T": {"type": "DT_FLOAT"}}}, {"name": "model/tfc3_6/tf_conv_48/mul_1", "op": "Mul", "input": ["model/tfc3_6/tf_conv_48/conv2d_48/BiasAdd", "model/tfc3_6/tf_conv_48/Sigmoid"], "attr": {"T": {"type": "DT_FLOAT"}}}, {"name": "model/tf_detect/tf_conv2d_1/conv2d_58/BiasAdd", "op": "_FusedConv2D", "input": ["model/tfc3_6/tf_conv_48/mul_1", "model/tf_detect/tf_conv2d_1/conv2d_58/Conv2D/ReadVariableOp", "model/tf_detect/tf_conv2d_1/conv2d_58/BiasAdd/ReadVariableOp"], "device": "/device:CPU:0", "attr": {"padding": {"s": "VkFMSUQ="}, "num_args": {"i": "1"}, "explicit_paddings": {"list": {}}, "dilations": {"list": {"i": ["1", "1", "1", "1"]}}, "T": {"type": "DT_FLOAT"}, "strides": {"list": {"i": ["1", "1", "1", "1"]}}, "filter_format": {"s": "SFdJTw=="}, "fused_ops": {"list": {"s": ["Qmlhc0FkZA=="]}}, "epsilon": {"f": 0.0}, "use_cudnn_on_gpu": {"b": true}, "leakyrelu_alpha": {"f": 0.2}, "data_format": {"s": "TkhXQw=="}, "num_host_args": {"i": "0"}, "TArgs": {"list": {"type": ["DT_FLOAT"]}}}}, {"name": "model/tf_conv_51/sequential_13/tf_pad_6/Pad", "op": "Pad", "input": ["model/tfc3_6/tf_conv_48/mul_1", "model/tf_conv_51/sequential_13/tf_pad_6/Pad/paddings"], "attr": {"Tpaddings": {"type": "DT_INT32"}, "T": {"type": "DT_FLOAT"}}}, {"name": "model/tf_detect/Reshape_2", "op": "Reshape", "input": ["model/tf_detect/tf_conv2d_1/conv2d_58/BiasAdd", "model/tf_detect/Reshape_2/shape_1"], "attr": {"T": {"type": "DT_FLOAT"}, "Tshape": {"type": "DT_INT32"}}}, {"name": "model/tf_conv_51/sequential_13/conv2d_51/BiasAdd", "op": "_FusedConv2D", "input": ["model/tf_conv_51/sequential_13/tf_pad_6/Pad", "model/tf_conv_51/sequential_13/conv2d_51/Conv2D/ReadVariableOp", "model/tf_conv_51/sequential_13/conv2d_51/BiasAdd/ReadVariableOp"], "device": "/device:CPU:0", "attr": {"filter_format": {"s": "SFdJTw=="}, "strides": {"list": {"i": ["1", "2", "2", "1"]}}, "dilations": {"list": {"i": ["1", "1", "1", "1"]}}, "use_cudnn_on_gpu": {"b": true}, "TArgs": {"list": {"type": ["DT_FLOAT"]}}, "fused_ops": {"list": {"s": ["Qmlhc0FkZA=="]}}, "data_format": {"s": "TkhXQw=="}, "leakyrelu_alpha": {"f": 0.2}, "epsilon": {"f": 0.0}, "num_args": {"i": "1"}, "num_host_args": {"i": "0"}, "padding": {"s": "VkFMSUQ="}, "T": {"type": "DT_FLOAT"}, "explicit_paddings": {"list": {}}}}, {"name": "model/tf_detect/strided_slice_11", "op": "StridedSlice", "input": ["model/tf_detect/Reshape_2", "model/tf_detect/strided_slice_11/stack", "model/tf_detect/strided_slice_11/stack_1", "model/tf_detect/strided_slice_11/stack_2"], "attr": {"end_mask": {"i": "0"}, "new_axis_mask": {"i": "0"}, "T": {"type": "DT_FLOAT"}, "shrink_axis_mask": {"i": "0"}, "Index": {"type": "DT_INT32"}, "begin_mask": {"i": "0"}, "ellipsis_mask": {"i": "1"}}}, {"name": "model/tf_detect/strided_slice_13", "op": "StridedSlice", "input": ["model/tf_detect/Reshape_2", "model/tf_detect/strided_slice_13/stack", "model/tf_detect/strided_slice_13/stack_1", "model/tf_detect/strided_slice_13/stack_2"], "attr": {"Index": {"type": "DT_INT32"}, "new_axis_mask": {"i": "0"}, "shrink_axis_mask": {"i": "0"}, "T": {"type": "DT_FLOAT"}, "end_mask": {"i": "0"}, "ellipsis_mask": {"i": "1"}, "begin_mask": {"i": "0"}}}, {"name": "model/tf_detect/strided_slice_14", "op": "StridedSlice", "input": ["model/tf_detect/Reshape_2", "model/tf_detect/strided_slice_14/stack", "model/tf_detect/strided_slice_14/stack_1", "model/tf_detect/strided_slice_14/stack_2"], "attr": {"begin_mask": {"i": "0"}, "T": {"type": "DT_FLOAT"}, "new_axis_mask": {"i": "0"}, "Index": {"type": "DT_INT32"}, "end_mask": {"i": "0"}, "shrink_axis_mask": {"i": "0"}, "ellipsis_mask": {"i": "1"}}}, {"name": "model/tf_detect/strided_slice_15", "op": "StridedSlice", "input": ["model/tf_detect/Reshape_2", "model/tf_detect/strided_slice_15/stack", "model/tf_detect/strided_slice_15/stack_1", "model/tf_detect/strided_slice_15/stack_2"], "attr": {"T": {"type": "DT_FLOAT"}, "begin_mask": {"i": "0"}, "ellipsis_mask": {"i": "1"}, "new_axis_mask": {"i": "0"}, "Index": {"type": "DT_INT32"}, "shrink_axis_mask": {"i": "0"}, "end_mask": {"i": "2"}}}, {"name": "model/tf_conv_51/Sigmoid", "op": "Sigmoid", "input": ["model/tf_conv_51/sequential_13/conv2d_51/BiasAdd"], "attr": {"T": {"type": "DT_FLOAT"}}}, {"name": "model/tf_detect/Sigmoid_3", "op": "Sigmoid", "input": ["model/tf_detect/strided_slice_11"], "attr": {"T": {"type": "DT_FLOAT"}}}, {"name": "model/tf_detect/Sigmoid_4", "op": "Sigmoid", "input": ["model/tf_detect/strided_slice_13"], "attr": {"T": {"type": "DT_FLOAT"}}}, {"name": "model/tf_detect/Sigmoid_5", "op": "Sigmoid", "input": ["model/tf_detect/strided_slice_14"], "attr": {"T": {"type": "DT_FLOAT"}}}, {"name": "model/tf_conv_51/mul_1", "op": "Mul", "input": ["model/tf_conv_51/sequential_13/conv2d_51/BiasAdd", "model/tf_conv_51/Sigmoid"], "attr": {"T": {"type": "DT_FLOAT"}}}, {"name": "model/tf_detect/mul_9", "op": "Mul", "input": ["model/tf_detect/Sigmoid_3", "model/tf_detect/mul_9/y"], "attr": {"T": {"type": "DT_FLOAT"}}}, {"name": "model/tf_detect/pow_1", "op": "Square", "input": ["model/tf_detect/Sigmoid_4"], "attr": {"T": {"type": "DT_FLOAT"}}}, {"name": "model/tf_concat_3/concat", "op": "ConcatV2", "input": ["model/tf_conv_51/mul_1", "model/tf_conv_33/mul_1", "model/tf_concat_3/concat/axis"], "attr": {"T": {"type": "DT_FLOAT"}, "Tidx": {"type": "DT_INT32"}, "N": {"i": "2"}}}, {"name": "model/tf_detect/add_1", "op": "AddV2", "input": ["model/tf_detect/mul_9", "model/tf_detect/sub_1"], "attr": {"T": {"type": "DT_FLOAT"}}}, {"name": "model/tf_detect/truediv_3", "op": "Mul", "input": ["model/tf_detect/pow_1", "model/tf_detect/mul_11"], "attr": {"T": {"type": "DT_FLOAT"}}}, {"name": "model/tfc3_7/tf_conv_52/conv2d_52/BiasAdd", "op": "_FusedConv2D", "input": ["model/tf_concat_3/concat", "model/tfc3_7/tf_conv_52/conv2d_52/Conv2D/ReadVariableOp", "model/tfc3_7/tf_conv_52/conv2d_52/BiasAdd/ReadVariableOp"], "device": "/device:CPU:0", "attr": {"strides": {"list": {"i": ["1", "1", "1", "1"]}}, "T": {"type": "DT_FLOAT"}, "padding": {"s": "U0FNRQ=="}, "num_args": {"i": "1"}, "TArgs": {"list": {"type": ["DT_FLOAT"]}}, "leakyrelu_alpha": {"f": 0.2}, "filter_format": {"s": "SFdJTw=="}, "explicit_paddings": {"list": {}}, "data_format": {"s": "TkhXQw=="}, "num_host_args": {"i": "0"}, "use_cudnn_on_gpu": {"b": true}, "epsilon": {"f": 0.0}, "fused_ops": {"list": {"s": ["Qmlhc0FkZA=="]}}, "dilations": {"list": {"i": ["1", "1", "1", "1"]}}}}, {"name": "model/tfc3_7/tf_conv_53/conv2d_53/BiasAdd", "op": "_FusedConv2D", "input": ["model/tf_concat_3/concat", "model/tfc3_7/tf_conv_53/conv2d_53/Conv2D/ReadVariableOp", "model/tfc3_7/tf_conv_53/conv2d_53/BiasAdd/ReadVariableOp"], "device": "/device:CPU:0", "attr": {"filter_format": {"s": "SFdJTw=="}, "data_format": {"s": "TkhXQw=="}, "explicit_paddings": {"list": {}}, "padding": {"s": "U0FNRQ=="}, "TArgs": {"list": {"type": ["DT_FLOAT"]}}, "strides": {"list": {"i": ["1", "1", "1", "1"]}}, "num_host_args": {"i": "0"}, "dilations": {"list": {"i": ["1", "1", "1", "1"]}}, "epsilon": {"f": 0.0}, "num_args": {"i": "1"}, "fused_ops": {"list": {"s": ["Qmlhc0FkZA=="]}}, "use_cudnn_on_gpu": {"b": true}, "T": {"type": "DT_FLOAT"}, "leakyrelu_alpha": {"f": 0.2}}}, {"name": "model/tf_detect/truediv_2", "op": "Mul", "input": ["model/tf_detect/add_1", "model/tf_detect/mul_10"], "attr": {"T": {"type": "DT_FLOAT"}}}, {"name": "model/tfc3_7/tf_conv_52/Sigmoid", "op": "Sigmoid", "input": ["model/tfc3_7/tf_conv_52/conv2d_52/BiasAdd"], "attr": {"T": {"type": "DT_FLOAT"}}}, {"name": "model/tfc3_7/tf_conv_53/Sigmoid", "op": "Sigmoid", "input": ["model/tfc3_7/tf_conv_53/conv2d_53/BiasAdd"], "attr": {"T": {"type": "DT_FLOAT"}}}, {"name": "model/tf_detect/concat_1", "op": "ConcatV2", "input": ["model/tf_detect/truediv_2", "model/tf_detect/truediv_3", "model/tf_detect/Sigmoid_5", "model/tf_detect/strided_slice_15", "model/tf_detect/concat_1/axis"], "attr": {"N": {"i": "4"}, "T": {"type": "DT_FLOAT"}, "Tidx": {"type": "DT_INT32"}}}, {"name": "model/tfc3_7/tf_conv_52/mul_1", "op": "Mul", "input": ["model/tfc3_7/tf_conv_52/conv2d_52/BiasAdd", "model/tfc3_7/tf_conv_52/Sigmoid"], "attr": {"T": {"type": "DT_FLOAT"}}}, {"name": "model/tfc3_7/tf_conv_53/mul_1", "op": "Mul", "input": ["model/tfc3_7/tf_conv_53/conv2d_53/BiasAdd", "model/tfc3_7/tf_conv_53/Sigmoid"], "attr": {"T": {"type": "DT_FLOAT"}}}, {"name": "model/tf_detect/Reshape_3", "op": "Reshape", "input": ["model/tf_detect/concat_1", "model/tf_detect/Reshape_3/shape_1"], "attr": {"Tshape": {"type": "DT_INT32"}, "T": {"type": "DT_FLOAT"}}}, {"name": "model/tfc3_7/sequential_14/tf_bottleneck_10/tf_conv_55/conv2d_55/BiasAdd", "op": "_FusedConv2D", "input": ["model/tfc3_7/tf_conv_52/mul_1", "model/tfc3_7/sequential_14/tf_bottleneck_10/tf_conv_55/conv2d_55/Conv2D/ReadVariableOp", "model/tfc3_7/sequential_14/tf_bottleneck_10/tf_conv_55/conv2d_55/BiasAdd/ReadVariableOp"], "device": "/device:CPU:0", "attr": {"explicit_paddings": {"list": {}}, "epsilon": {"f": 0.0}, "filter_format": {"s": "SFdJTw=="}, "leakyrelu_alpha": {"f": 0.2}, "use_cudnn_on_gpu": {"b": true}, "num_host_args": {"i": "0"}, "T": {"type": "DT_FLOAT"}, "TArgs": {"list": {"type": ["DT_FLOAT"]}}, "num_args": {"i": "1"}, "fused_ops": {"list": {"s": ["Qmlhc0FkZA=="]}}, "data_format": {"s": "TkhXQw=="}, "dilations": {"list": {"i": ["1", "1", "1", "1"]}}, "strides": {"list": {"i": ["1", "1", "1", "1"]}}, "padding": {"s": "U0FNRQ=="}}}, {"name": "model/tfc3_7/sequential_14/tf_bottleneck_10/tf_conv_55/Sigmoid", "op": "Sigmoid", "input": ["model/tfc3_7/sequential_14/tf_bottleneck_10/tf_conv_55/conv2d_55/BiasAdd"], "attr": {"T": {"type": "DT_FLOAT"}}}, {"name": "model/tfc3_7/sequential_14/tf_bottleneck_10/tf_conv_55/mul_1", "op": "Mul", "input": ["model/tfc3_7/sequential_14/tf_bottleneck_10/tf_conv_55/conv2d_55/BiasAdd", "model/tfc3_7/sequential_14/tf_bottleneck_10/tf_conv_55/Sigmoid"], "attr": {"T": {"type": "DT_FLOAT"}}}, {"name": "model/tfc3_7/sequential_14/tf_bottleneck_10/tf_conv_56/conv2d_56/BiasAdd", "op": "_FusedConv2D", "input": ["model/tfc3_7/sequential_14/tf_bottleneck_10/tf_conv_55/mul_1", "model/tfc3_7/sequential_14/tf_bottleneck_10/tf_conv_56/conv2d_56/Conv2D/ReadVariableOp", "model/tfc3_7/sequential_14/tf_bottleneck_10/tf_conv_56/conv2d_56/BiasAdd/ReadVariableOp"], "device": "/device:CPU:0", "attr": {"num_host_args": {"i": "0"}, "explicit_paddings": {"list": {}}, "padding": {"s": "U0FNRQ=="}, "fused_ops": {"list": {"s": ["Qmlhc0FkZA=="]}}, "leakyrelu_alpha": {"f": 0.2}, "dilations": {"list": {"i": ["1", "1", "1", "1"]}}, "T": {"type": "DT_FLOAT"}, "use_cudnn_on_gpu": {"b": true}, "filter_format": {"s": "SFdJTw=="}, "num_args": {"i": "1"}, "strides": {"list": {"i": ["1", "1", "1", "1"]}}, "epsilon": {"f": 0.0}, "data_format": {"s": "TkhXQw=="}, "TArgs": {"list": {"type": ["DT_FLOAT"]}}}}, {"name": "model/tfc3_7/sequential_14/tf_bottleneck_10/tf_conv_56/Sigmoid", "op": "Sigmoid", "input": ["model/tfc3_7/sequential_14/tf_bottleneck_10/tf_conv_56/conv2d_56/BiasAdd"], "attr": {"T": {"type": "DT_FLOAT"}}}, {"name": "model/tfc3_7/sequential_14/tf_bottleneck_10/tf_conv_56/mul_1", "op": "Mul", "input": ["model/tfc3_7/sequential_14/tf_bottleneck_10/tf_conv_56/conv2d_56/BiasAdd", "model/tfc3_7/sequential_14/tf_bottleneck_10/tf_conv_56/Sigmoid"], "attr": {"T": {"type": "DT_FLOAT"}}}, {"name": "model/tfc3_7/concat", "op": "ConcatV2", "input": ["model/tfc3_7/sequential_14/tf_bottleneck_10/tf_conv_56/mul_1", "model/tfc3_7/tf_conv_53/mul_1", "model/tfc3_7/concat/axis"], "attr": {"N": {"i": "2"}, "Tidx": {"type": "DT_INT32"}, "T": {"type": "DT_FLOAT"}}}, {"name": "model/tfc3_7/tf_conv_54/conv2d_54/BiasAdd", "op": "_FusedConv2D", "input": ["model/tfc3_7/concat", "model/tfc3_7/tf_conv_54/conv2d_54/Conv2D/ReadVariableOp", "model/tfc3_7/tf_conv_54/conv2d_54/BiasAdd/ReadVariableOp"], "device": "/device:CPU:0", "attr": {"epsilon": {"f": 0.0}, "leakyrelu_alpha": {"f": 0.2}, "strides": {"list": {"i": ["1", "1", "1", "1"]}}, "padding": {"s": "U0FNRQ=="}, "num_args": {"i": "1"}, "dilations": {"list": {"i": ["1", "1", "1", "1"]}}, "explicit_paddings": {"list": {}}, "T": {"type": "DT_FLOAT"}, "fused_ops": {"list": {"s": ["Qmlhc0FkZA=="]}}, "filter_format": {"s": "SFdJTw=="}, "data_format": {"s": "TkhXQw=="}, "TArgs": {"list": {"type": ["DT_FLOAT"]}}, "num_host_args": {"i": "0"}, "use_cudnn_on_gpu": {"b": true}}}, {"name": "model/tfc3_7/tf_conv_54/Sigmoid", "op": "Sigmoid", "input": ["model/tfc3_7/tf_conv_54/conv2d_54/BiasAdd"], "attr": {"T": {"type": "DT_FLOAT"}}}, {"name": "model/tfc3_7/tf_conv_54/mul_1", "op": "Mul", "input": ["model/tfc3_7/tf_conv_54/conv2d_54/BiasAdd", "model/tfc3_7/tf_conv_54/Sigmoid"], "attr": {"T": {"type": "DT_FLOAT"}}}, {"name": "model/tf_detect/tf_conv2d_2/conv2d_59/BiasAdd", "op": "_FusedConv2D", "input": ["model/tfc3_7/tf_conv_54/mul_1", "model/tf_detect/tf_conv2d_2/conv2d_59/Conv2D/ReadVariableOp", "model/tf_detect/tf_conv2d_2/conv2d_59/BiasAdd/ReadVariableOp"], "device": "/device:CPU:0", "attr": {"leakyrelu_alpha": {"f": 0.2}, "dilations": {"list": {"i": ["1", "1", "1", "1"]}}, "filter_format": {"s": "SFdJTw=="}, "use_cudnn_on_gpu": {"b": true}, "T": {"type": "DT_FLOAT"}, "explicit_paddings": {"list": {}}, "padding": {"s": "VkFMSUQ="}, "fused_ops": {"list": {"s": ["Qmlhc0FkZA=="]}}, "num_host_args": {"i": "0"}, "num_args": {"i": "1"}, "data_format": {"s": "TkhXQw=="}, "strides": {"list": {"i": ["1", "1", "1", "1"]}}, "TArgs": {"list": {"type": ["DT_FLOAT"]}}, "epsilon": {"f": 0.0}}}, {"name": "model/tf_detect/Reshape_4", "op": "Reshape", "input": ["model/tf_detect/tf_conv2d_2/conv2d_59/BiasAdd", "model/tf_detect/Reshape_4/shape_1"], "attr": {"Tshape": {"type": "DT_INT32"}, "T": {"type": "DT_FLOAT"}}}, {"name": "model/tf_detect/strided_slice_19", "op": "StridedSlice", "input": ["model/tf_detect/Reshape_4", "model/tf_detect/strided_slice_19/stack", "model/tf_detect/strided_slice_19/stack_1", "model/tf_detect/strided_slice_19/stack_2"], "attr": {"end_mask": {"i": "0"}, "begin_mask": {"i": "0"}, "ellipsis_mask": {"i": "1"}, "new_axis_mask": {"i": "0"}, "shrink_axis_mask": {"i": "0"}, "T": {"type": "DT_FLOAT"}, "Index": {"type": "DT_INT32"}}}, {"name": "model/tf_detect/strided_slice_21", "op": "StridedSlice", "input": ["model/tf_detect/Reshape_4", "model/tf_detect/strided_slice_21/stack", "model/tf_detect/strided_slice_21/stack_1", "model/tf_detect/strided_slice_21/stack_2"], "attr": {"new_axis_mask": {"i": "0"}, "Index": {"type": "DT_INT32"}, "ellipsis_mask": {"i": "1"}, "end_mask": {"i": "0"}, "T": {"type": "DT_FLOAT"}, "begin_mask": {"i": "0"}, "shrink_axis_mask": {"i": "0"}}}, {"name": "model/tf_detect/strided_slice_22", "op": "StridedSlice", "input": ["model/tf_detect/Reshape_4", "model/tf_detect/strided_slice_22/stack", "model/tf_detect/strided_slice_22/stack_1", "model/tf_detect/strided_slice_22/stack_2"], "attr": {"begin_mask": {"i": "0"}, "Index": {"type": "DT_INT32"}, "new_axis_mask": {"i": "0"}, "ellipsis_mask": {"i": "1"}, "T": {"type": "DT_FLOAT"}, "shrink_axis_mask": {"i": "0"}, "end_mask": {"i": "0"}}}, {"name": "model/tf_detect/strided_slice_23", "op": "StridedSlice", "input": ["model/tf_detect/Reshape_4", "model/tf_detect/strided_slice_23/stack", "model/tf_detect/strided_slice_23/stack_1", "model/tf_detect/strided_slice_23/stack_2"], "attr": {"T": {"type": "DT_FLOAT"}, "ellipsis_mask": {"i": "1"}, "end_mask": {"i": "2"}, "new_axis_mask": {"i": "0"}, "shrink_axis_mask": {"i": "0"}, "Index": {"type": "DT_INT32"}, "begin_mask": {"i": "0"}}}, {"name": "model/tf_detect/Sigmoid_6", "op": "Sigmoid", "input": ["model/tf_detect/strided_slice_19"], "attr": {"T": {"type": "DT_FLOAT"}}}, {"name": "model/tf_detect/Sigmoid_7", "op": "Sigmoid", "input": ["model/tf_detect/strided_slice_21"], "attr": {"T": {"type": "DT_FLOAT"}}}, {"name": "model/tf_detect/Sigmoid_8", "op": "Sigmoid", "input": ["model/tf_detect/strided_slice_22"], "attr": {"T": {"type": "DT_FLOAT"}}}, {"name": "model/tf_detect/mul_16", "op": "Mul", "input": ["model/tf_detect/Sigmoid_6", "model/tf_detect/mul_16/y"], "attr": {"T": {"type": "DT_FLOAT"}}}, {"name": "model/tf_detect/pow_2", "op": "Square", "input": ["model/tf_detect/Sigmoid_7"], "attr": {"T": {"type": "DT_FLOAT"}}}, {"name": "model/tf_detect/add_2", "op": "AddV2", "input": ["model/tf_detect/mul_16", "model/tf_detect/sub_2"], "attr": {"T": {"type": "DT_FLOAT"}}}, {"name": "model/tf_detect/truediv_5", "op": "Mul", "input": ["model/tf_detect/pow_2", "model/tf_detect/mul_18"], "attr": {"T": {"type": "DT_FLOAT"}}}, {"name": "model/tf_detect/truediv_4", "op": "Mul", "input": ["model/tf_detect/add_2", "model/tf_detect/mul_17"], "attr": {"T": {"type": "DT_FLOAT"}}}, {"name": "model/tf_detect/concat_2", "op": "ConcatV2", "input": ["model/tf_detect/truediv_4", "model/tf_detect/truediv_5", "model/tf_detect/Sigmoid_8", "model/tf_detect/strided_slice_23", "model/tf_detect/concat_2/axis"], "attr": {"T": {"type": "DT_FLOAT"}, "N": {"i": "4"}, "Tidx": {"type": "DT_INT32"}}}, {"name": "model/tf_detect/Reshape_5", "op": "Reshape", "input": ["model/tf_detect/concat_2", "model/tf_detect/Reshape_5/shape_1"], "attr": {"T": {"type": "DT_FLOAT"}, "Tshape": {"type": "DT_INT32"}}}, {"name": "model/tf_detect/concat_3", "op": "ConcatV2", "input": ["model/tf_detect/Reshape_1", "model/tf_detect/Reshape_3", "model/tf_detect/Reshape_5", "model/tf_detect/concat_3/axis"], "attr": {"Tidx": {"type": "DT_INT32"}, "T": {"type": "DT_FLOAT"}, "N": {"i": "3"}}}, {"name": "model/tf.__operators__.getitem_1/strided_slice", "op": "StridedSlice", "input": ["model/tf_detect/concat_3", "model/tf.__operators__.getitem_1/strided_slice/stack", "model/tf.__operators__.getitem_1/strided_slice/stack_1", "model/tf.__operators__.getitem_1/strided_slice/stack_2"], "attr": {"Index": {"type": "DT_INT32"}, "begin_mask": {"i": "3"}, "end_mask": {"i": "3"}, "shrink_axis_mask": {"i": "0"}, "new_axis_mask": {"i": "0"}, "ellipsis_mask": {"i": "0"}, "T": {"type": "DT_FLOAT"}}}, {"name": "model/tf.__operators__.getitem_2/strided_slice", "op": "StridedSlice", "input": ["model/tf_detect/concat_3", "model/tf.__operators__.getitem_2/strided_slice/stack", "model/tf.__operators__.getitem_2/strided_slice/stack_1", "model/tf.__operators__.getitem_2/strided_slice/stack_2"], "attr": {"begin_mask": {"i": "3"}, "new_axis_mask": {"i": "0"}, "end_mask": {"i": "7"}, "Index": {"type": "DT_INT32"}, "T": {"type": "DT_FLOAT"}, "shrink_axis_mask": {"i": "0"}, "ellipsis_mask": {"i": "0"}}}, {"name": "model/tf.__operators__.getitem/strided_slice", "op": "StridedSlice", "input": ["model/tf_detect/concat_3", "model/tf.__operators__.getitem/strided_slice/stack", "model/tf.__operators__.getitem/strided_slice/stack_1", "model/tf.__operators__.getitem/strided_slice/stack_2"], "attr": {"begin_mask": {"i": "2"}, "ellipsis_mask": {"i": "1"}, "new_axis_mask": {"i": "0"}, "end_mask": {"i": "0"}, "shrink_axis_mask": {"i": "0"}, "Index": {"type": "DT_INT32"}, "T": {"type": "DT_FLOAT"}}}, {"name": "model/tf.math.multiply/Mul", "op": "Mul", "input": ["model/tf.__operators__.getitem_1/strided_slice", "model/tf.__operators__.getitem_2/strided_slice"], "attr": {"T": {"type": "DT_FLOAT"}}}, {"name": "model/tf.split/split", "op": "Split", "input": ["model/tf.split/split/split_dim", "model/tf.__operators__.getitem/strided_slice"], "attr": {"num_split": {"i": "4"}, "T": {"type": "DT_FLOAT"}}}, {"name": "Identity_1", "op": "Identity", "input": ["model/tf.math.multiply/Mul"], "attr": {"T": {"type": "DT_FLOAT"}}}, {"name": "model/tf.math.truediv_1/truediv", "op": "Mul", "input": ["model/tf.split/split:2", "ConstantFolding/model/tf.math.truediv_1/truediv_recip"], "attr": {"T": {"type": "DT_FLOAT"}}}, {"name": "model/tf.math.truediv_3/truediv", "op": "Mul", "input": ["model/tf.split/split:2", "ConstantFolding/model/tf.math.truediv_3/truediv_recip"], "attr": {"T": {"type": "DT_FLOAT"}}}, {"name": "model/tf.math.truediv/truediv", "op": "Mul", "input": ["model/tf.split/split:3", "ConstantFolding/model/tf.math.truediv/truediv_recip"], "attr": {"T": {"type": "DT_FLOAT"}}}, {"name": "model/tf.math.truediv_2/truediv", "op": "Mul", "input": ["model/tf.split/split:3", "ConstantFolding/model/tf.math.truediv_2/truediv_recip"], "attr": {"T": {"type": "DT_FLOAT"}}}, {"name": "model/tf.math.subtract_1/Sub", "op": "Sub", "input": ["model/tf.split/split", "model/tf.math.truediv_1/truediv"], "attr": {"T": {"type": "DT_FLOAT"}}}, {"name": "model/tf.__operators__.add_1/AddV2", "op": "AddV2", "input": ["model/tf.split/split", "model/tf.math.truediv_3/truediv"], "attr": {"T": {"type": "DT_FLOAT"}}}, {"name": "model/tf.math.subtract/Sub", "op": "Sub", "input": ["model/tf.split/split:1", "model/tf.math.truediv/truediv"], "attr": {"T": {"type": "DT_FLOAT"}}}, {"name": "model/tf.__operators__.add/AddV2", "op": "AddV2", "input": ["model/tf.split/split:1", "model/tf.math.truediv_2/truediv"], "attr": {"T": {"type": "DT_FLOAT"}}}, {"name": "model/tf.concat/concat", "op": "ConcatV2", "input": ["model/tf.math.subtract/Sub", "model/tf.math.subtract_1/Sub", "model/tf.__operators__.add/AddV2", "model/tf.__operators__.add_1/AddV2", "model/tf.concat/concat/axis"], "attr": {"T": {"type": "DT_FLOAT"}, "N": {"i": "4"}, "Tidx": {"type": "DT_INT32"}}}, {"name": "Identity", "op": "Identity", "input": ["model/tf.concat/concat"], "attr": {"T": {"type": "DT_FLOAT"}}}], "library": {}, "versions": {"producer": 1286}}, "weightsManifest": [{"paths": ["group1-shard1of1.bin"], "weights": [{"name": "ConstantFolding/model/tf.math.truediv/truediv_recip", "shape": [], "dtype": "float32", "quantization": {"dtype": "uint8", "min": 0.5, "scale": 1.0, "original_dtype": "float32"}}, {"name": "ConstantFolding/model/tf.math.truediv_1/truediv_recip", "shape": [], "dtype": "float32", "quantization": {"dtype": "uint8", "min": 0.5, "scale": 1.0, "original_dtype": "float32"}}, {"name": "ConstantFolding/model/tf.math.truediv_2/truediv_recip", "shape": [], "dtype": "float32", "quantization": {"dtype": "uint8", "min": 0.5, "scale": 1.0, "original_dtype": "float32"}}, {"name": "model/tf.split/split/split_dim", "shape": [], "dtype": "int32"}, {"name": "model/tf.__operators__.getitem/strided_slice/stack", "shape": [2], "dtype": "int32"}, {"name": "model/tf.__operators__.getitem/strided_slice/stack_1", "shape": [2], "dtype": "int32"}, {"name": "model/tf.__operators__.getitem/strided_slice/stack_2", "shape": [2], "dtype": "int32"}, {"name": "ConstantFolding/model/tf.math.truediv_3/truediv_recip", "shape": [], "dtype": "float32", "quantization": {"dtype": "uint8", "min": 0.5, "scale": 1.0, "original_dtype": "float32"}}, {"name": "model/tf.concat/concat/axis", "shape": [], "dtype": "int32"}, {"name": "model/tf.__operators__.getitem_1/strided_slice/stack", "shape": [3], "dtype": "int32"}, {"name": "model/tf.__operators__.getitem_1/strided_slice/stack_1", "shape": [3], "dtype": "int32"}, {"name": "model/tf.__operators__.getitem_1/strided_slice/stack_2", "shape": [3], "dtype": "int32"}, {"name": "model/tf_detect/strided_slice_3/stack", "shape": [2], "dtype": "int32"}, {"name": "model/tf_detect/strided_slice_3/stack_1", "shape": [2], "dtype": "int32"}, {"name": "model/tf_detect/strided_slice_3/stack_2", "shape": [2], "dtype": "int32"}, {"name": "model/tf_detect/mul_2/y", "shape": [], "dtype": "float32", "quantization": {"dtype": "uint8", "min": 2.0, "scale": 1.0, "original_dtype": "float32"}}, {"name": "model/tf_detect/sub", "shape": [1, 1600, 1, 2], "dtype": "float32", "quantization": {"dtype": "uint8", "min": -0.45882352941176474, "scale": 0.15294117647058825, "original_dtype": "float32"}}, {"name": "model/tf_detect/mul_3", "shape": [1, 2], "dtype": "float32", "quantization": {"dtype": "uint8", "min": 0.02500000037252903, "scale": 1.0, "original_dtype": "float32"}}, {"name": "model/tf_detect/strided_slice_5/stack", "shape": [2], "dtype": "int32"}, {"name": "model/tf_detect/strided_slice_5/stack_1", "shape": [2], "dtype": "int32"}, {"name": "model/tf_detect/strided_slice_5/stack_2", "shape": [2], "dtype": "int32"}, {"name": "model/tf_detect/mul_4", "shape": [1, 1, 3, 2], "dtype": "float32", "quantization": {"dtype": "uint8", "min": 0.125, "scale": 0.0011274509570177863, "original_dtype": "float32"}}, {"name": "model/tf_detect/strided_slice_6/stack", "shape": [2], "dtype": "int32"}, {"name": "model/tf_detect/strided_slice_6/stack_1", "shape": [2], "dtype": "int32"}, {"name": "model/tf_detect/strided_slice_6/stack_2", "shape": [2], "dtype": "int32"}, {"name": "model/tf_detect/tf_conv2d/conv2d_57/Conv2D/ReadVariableOp", "shape": [1, 1, 50, 99], "dtype": "float32", "quantization": {"dtype": "uint8", "min": -0.7324754901960785, "scale": 0.005269607843137255, "original_dtype": "float32"}}, {"name": "model/tf_detect/tf_conv2d/conv2d_57/BiasAdd/ReadVariableOp", "shape": [99], "dtype": "float32", "quantization": {"dtype": "uint8", "min": -7.087166819852941, "scale": 0.03135914522058823, "original_dtype": "float32"}}, {"name": "model/tf_detect/Reshape/shape_1", "shape": [4], "dtype": "int32"}, {"name": "model/tf_detect/strided_slice_7/stack", "shape": [2], "dtype": "int32"}, {"name": "model/tf_detect/strided_slice_7/stack_1", "shape": [2], "dtype": "int32"}, {"name": "model/tf_detect/strided_slice_7/stack_2", "shape": [2], "dtype": "int32"}, {"name": "model/tf_detect/concat/axis", "shape": [], "dtype": "int32"}, {"name": "model/tf_detect/Reshape_1/shape_1", "shape": [3], "dtype": "int32"}, {"name": "model/tf_detect/strided_slice_11/stack", "shape": [2], "dtype": "int32"}, {"name": "model/tf_detect/strided_slice_11/stack_1", "shape": [2], "dtype": "int32"}, {"name": "model/tf_detect/strided_slice_11/stack_2", "shape": [2], "dtype": "int32"}, {"name": "model/tf_detect/mul_9/y", "shape": [], "dtype": "float32", "quantization": {"dtype": "uint8", "min": 2.0, "scale": 1.0, "original_dtype": "float32"}}, {"name": "model/tf_detect/sub_1", "shape": [1, 400, 1, 2], "dtype": "float32", "quantization": {"dtype": "uint8", "min": -0.5215686274509804, "scale": 0.07450980392156863, "original_dtype": "float32"}}, {"name": "model/tf_detect/mul_10", "shape": [1, 2], "dtype": "float32", "quantization": {"dtype": "uint8", "min": 0.05000000074505806, "scale": 1.0, "original_dtype": "float32"}}, {"name": "model/tf_detect/strided_slice_13/stack", "shape": [2], "dtype": "int32"}, {"name": "model/tf_detect/strided_slice_13/stack_1", "shape": [2], "dtype": "int32"}, {"name": "model/tf_detect/strided_slice_13/stack_2", "shape": [2], "dtype": "int32"}, {"name": "model/tf_detect/mul_11", "shape": [1, 1, 3, 2], "dtype": "float32", "quantization": {"dtype": "uint8", "min": 0.375, "scale": 0.004362745378531662, "original_dtype": "float32"}}, {"name": "model/tf_detect/strided_slice_14/stack", "shape": [2], "dtype": "int32"}, {"name": "model/tf_detect/strided_slice_14/stack_1", "shape": [2], "dtype": "int32"}, {"name": "model/tf_detect/strided_slice_14/stack_2", "shape": [2], "dtype": "int32"}, {"name": "model/tf_detect/tf_conv2d_1/conv2d_58/Conv2D/ReadVariableOp", "shape": [1, 1, 96, 99], "dtype": "float32", "quantization": {"dtype": "uint8", "min": -0.9833065257352942, "scale": 0.006973805147058824, "original_dtype": "float32"}}, {"name": "model/tf_detect/tf_conv2d_1/conv2d_58/BiasAdd/ReadVariableOp", "shape": [99], "dtype": "float32", "quantization": {"dtype": "uint8", "min": -5.303883272058823, "scale": 0.025256587009803922, "original_dtype": "float32"}}, {"name": "model/tf_detect/Reshape_2/shape_1", "shape": [4], "dtype": "int32"}, {"name": "model/tf_detect/strided_slice_15/stack", "shape": [2], "dtype": "int32"}, {"name": "model/tf_detect/strided_slice_15/stack_1", "shape": [2], "dtype": "int32"}, {"name": "model/tf_detect/strided_slice_15/stack_2", "shape": [2], "dtype": "int32"}, {"name": "model/tf_detect/concat_1/axis", "shape": [], "dtype": "int32"}, {"name": "model/tf_detect/Reshape_3/shape_1", "shape": [3], "dtype": "int32"}, {"name": "model/tf_detect/strided_slice_19/stack", "shape": [2], "dtype": "int32"}, {"name": "model/tf_detect/strided_slice_19/stack_1", "shape": [2], "dtype": "int32"}, {"name": "model/tf_detect/strided_slice_19/stack_2", "shape": [2], "dtype": "int32"}, {"name": "model/tf_detect/mul_16/y", "shape": [], "dtype": "float32", "quantization": {"dtype": "uint8", "min": 2.0, "scale": 1.0, "original_dtype": "float32"}}, {"name": "model/tf_detect/sub_2", "shape": [1, 100, 1, 2], "dtype": "float32", "quantization": {"dtype": "uint8", "min": -0.49411764705882355, "scale": 0.03529411764705882, "original_dtype": "float32"}}, {"name": "model/tf_detect/mul_17", "shape": [1, 2], "dtype": "float32", "quantization": {"dtype": "uint8", "min": 0.10000000149011612, "scale": 1.0, "original_dtype": "float32"}}, {"name": "model/tf_detect/strided_slice_21/stack", "shape": [2], "dtype": "int32"}, {"name": "model/tf_detect/strided_slice_21/stack_1", "shape": [2], "dtype": "int32"}, {"name": "model/tf_detect/strided_slice_21/stack_2", "shape": [2], "dtype": "int32"}, {"name": "model/tf_detect/mul_18", "shape": [1, 1, 3, 2], "dtype": "float32", "quantization": {"dtype": "uint8", "min": 1.125, "scale": 0.013872548645617915, "original_dtype": "float32"}}, {"name": "model/tf_detect/strided_slice_22/stack", "shape": [2], "dtype": "int32"}, {"name": "model/tf_detect/strided_slice_22/stack_1", "shape": [2], "dtype": "int32"}, {"name": "model/tf_detect/strided_slice_22/stack_2", "shape": [2], "dtype": "int32"}, {"name": "model/tfc3_7/tf_conv_52/conv2d_52/Conv2D/ReadVariableOp", "shape": [1, 1, 246, 122], "dtype": "float32", "quantization": {"dtype": "uint8", "min": -1.1161164639042873, "scale": 0.008519973006902956, "original_dtype": "float32"}}, {"name": "model/tfc3_7/tf_conv_52/conv2d_52/BiasAdd/ReadVariableOp", "shape": [122], "dtype": "float32", "quantization": {"dtype": "uint8", "min": -2.072429721963172, "scale": 0.013908924308477663, "original_dtype": "float32"}}, {"name": "model/tfc3_7/sequential_14/tf_bottleneck_10/tf_conv_55/conv2d_55/Conv2D/ReadVariableOp", "shape": [1, 1, 122, 128], "dtype": "float32", "quantization": {"dtype": "uint8", "min": -1.3647934371349857, "scale": 0.009961995891496246, "original_dtype": "float32"}}, {"name": "model/tfc3_7/sequential_14/tf_bottleneck_10/tf_conv_55/conv2d_55/BiasAdd/ReadVariableOp", "shape": [128], "dtype": "float32", "quantization": {"dtype": "uint8", "min": -1.6294674499362123, "scale": 0.011009915202271705, "original_dtype": "float32"}}, {"name": "model/tfc3_7/sequential_14/tf_bottleneck_10/tf_conv_56/conv2d_56/Conv2D/ReadVariableOp", "shape": [3, 3, 128, 122], "dtype": "float32", "quantization": {"dtype": "uint8", "min": -1.52289898816277, "scale": 0.009064874929540298, "original_dtype": "float32"}}, {"name": "model/tfc3_7/sequential_14/tf_bottleneck_10/tf_conv_56/conv2d_56/BiasAdd/ReadVariableOp", "shape": [122], "dtype": "float32", "quantization": {"dtype": "uint8", "min": -2.4655551190469778, "scale": 0.015704172732783298, "original_dtype": "float32"}}, {"name": "model/tfc3_6/tf_conv_46/conv2d_46/Conv2D/ReadVariableOp", "shape": [1, 1, 127, 63], "dtype": "float32", "quantization": {"dtype": "uint8", "min": -0.8880381918420979, "scale": 0.006482030597387576, "original_dtype": "float32"}}, {"name": "model/tfc3_6/tf_conv_46/conv2d_46/BiasAdd/ReadVariableOp", "shape": [63], "dtype": "float32", "quantization": {"dtype": "uint8", "min": -2.5622967102948357, "scale": 0.023083754146800323, "original_dtype": "float32"}}, {"name": "model/tfc3_6/sequential_12/tf_bottleneck_9/tf_conv_49/conv2d_49/Conv2D/ReadVariableOp", "shape": [1, 1, 63, 64], "dtype": "float32", "quantization": {"dtype": "uint8", "min": -2.058399418288586, "scale": 0.01130988691367355, "original_dtype": "float32"}}, {"name": "model/tfc3_6/sequential_12/tf_bottleneck_9/tf_conv_49/conv2d_49/BiasAdd/ReadVariableOp", "shape": [64], "dtype": "float32", "quantization": {"dtype": "uint8", "min": -2.726439910776475, "scale": 0.016523878247130152, "original_dtype": "float32"}}, {"name": "model/tfc3_6/sequential_12/tf_bottleneck_9/tf_conv_50/conv2d_50/Conv2D/ReadVariableOp", "shape": [3, 3, 64, 63], "dtype": "float32", "quantization": {"dtype": "uint8", "min": -1.598660055328818, "scale": 0.010313935840831083, "original_dtype": "float32"}}, {"name": "model/tfc3_6/sequential_12/tf_bottleneck_9/tf_conv_50/conv2d_50/BiasAdd/ReadVariableOp", "shape": [63], "dtype": "float32", "quantization": {"dtype": "uint8", "min": -2.771407396653119, "scale": 0.016898825589348288, "original_dtype": "float32"}}, {"name": "model/tfc3_5/tf_conv_40/conv2d_40/Conv2D/ReadVariableOp", "shape": [1, 1, 124, 31], "dtype": "float32", "quantization": {"dtype": "uint8", "min": -0.6571505228678385, "scale": 0.004831989138734107, "original_dtype": "float32"}}, {"name": "model/tfc3_5/tf_conv_40/conv2d_40/BiasAdd/ReadVariableOp", "shape": [31], "dtype": "float32", "quantization": {"dtype": "uint8", "min": -2.231305986292222, "scale": 0.01571342243867762, "original_dtype": "float32"}}, {"name": "model/tfc3_5/sequential_10/tf_bottleneck_8/tf_conv_43/conv2d_43/Conv2D/ReadVariableOp", "shape": [1, 1, 31, 32], "dtype": "float32", "quantization": {"dtype": "uint8", "min": -1.963885314324323, "scale": 0.01476605499491972, "original_dtype": "float32"}}, {"name": "model/tfc3_5/sequential_10/tf_bottleneck_8/tf_conv_43/conv2d_43/BiasAdd/ReadVariableOp", "shape": [32], "dtype": "float32", "quantization": {"dtype": "uint8", "min": -2.150934684042837, "scale": 0.02010219330881156, "original_dtype": "float32"}}, {"name": "model/tfc3_5/sequential_10/tf_bottleneck_8/tf_conv_44/conv2d_44/Conv2D/ReadVariableOp", "shape": [3, 3, 32, 31], "dtype": "float32", "quantization": {"dtype": "uint8", "min": -1.1659028873724098, "scale": 0.007931312158995984, "original_dtype": "float32"}}, {"name": "model/tfc3_5/sequential_10/tf_bottleneck_8/tf_conv_44/conv2d_44/BiasAdd/ReadVariableOp", "shape": [31], "dtype": "float32", "quantization": {"dtype": "uint8", "min": -1.254569657643636, "scale": 0.016293112436930338, "original_dtype": "float32"}}, {"name": "model/tf_upsample_1/resize/size", "shape": [2], "dtype": "int32"}, {"name": "model/tf_concat_1/concat/axis", "shape": [], "dtype": "int32"}, {"name": "model/tfc3_5/tf_conv_41/conv2d_41/Conv2D/ReadVariableOp", "shape": [1, 1, 124, 32], "dtype": "float32", "quantization": {"dtype": "uint8", "min": -1.1593620445214066, "scale": 0.006860130440955068, "original_dtype": "float32"}}, {"name": "model/tfc3_5/tf_conv_41/conv2d_41/BiasAdd/ReadVariableOp", "shape": [32], "dtype": "float32", "quantization": {"dtype": "uint8", "min": -0.46941391393250115, "scale": 0.01066849804392048, "original_dtype": "float32"}}, {"name": "model/tfc3_5/concat/axis", "shape": [], "dtype": "int32"}, {"name": "model/tfc3_5/tf_conv_42/conv2d_42/Conv2D/ReadVariableOp", "shape": [1, 1, 63, 50], "dtype": "float32", "quantization": {"dtype": "uint8", "min": -3.4055149714152018, "scale": 0.02861777286903531, "original_dtype": "float32"}}, {"name": "model/tfc3_5/tf_conv_42/conv2d_42/BiasAdd/ReadVariableOp", "shape": [50], "dtype": "float32", "quantization": {"dtype": "uint8", "min": -6.202068426094803, "scale": 0.07850719526702282, "original_dtype": "float32"}}, {"name": "model/tf_conv_45/sequential_11/tf_pad_5/Pad/paddings", "shape": [4, 2], "dtype": "int32"}, {"name": "model/tf_conv_45/sequential_11/conv2d_45/Conv2D/ReadVariableOp", "shape": [3, 3, 50, 63], "dtype": "float32", "quantization": {"dtype": "uint8", "min": -0.24012579882846158, "scale": 0.0019522422668980617, "original_dtype": "float32"}}, {"name": "model/tf_conv_45/sequential_11/conv2d_45/BiasAdd/ReadVariableOp", "shape": [63], "dtype": "float32", "quantization": {"dtype": "uint8", "min": -2.649637461643593, "scale": 0.01790295582191617, "original_dtype": "float32"}}, {"name": "model/tfc3_4/tf_conv_34/conv2d_34/Conv2D/ReadVariableOp", "shape": [1, 1, 253, 64], "dtype": "float32", "quantization": {"dtype": "uint8", "min": -1.048603589628257, "scale": 0.006765184449214561, "original_dtype": "float32"}}, {"name": "model/tfc3_4/tf_conv_34/conv2d_34/BiasAdd/ReadVariableOp", "shape": [64], "dtype": "float32", "quantization": {"dtype": "uint8", "min": -2.6569031444250366, "scale": 0.019114411110971487, "original_dtype": "float32"}}, {"name": "model/tfc3_4/sequential_9/tf_bottleneck_7/tf_conv_37/conv2d_37/Conv2D/ReadVariableOp", "shape": [1, 1, 64, 64], "dtype": "float32", "quantization": {"dtype": "uint8", "min": -1.160398535634957, "scale": 0.009065613559648102, "original_dtype": "float32"}}, {"name": "model/tfc3_4/sequential_9/tf_bottleneck_7/tf_conv_37/conv2d_37/BiasAdd/ReadVariableOp", "shape": [64], "dtype": "float32", "quantization": {"dtype": "uint8", "min": -3.2888506047865924, "scale": 0.022221963545855355, "original_dtype": "float32"}}, {"name": "model/tfc3_4/sequential_9/tf_bottleneck_7/tf_conv_38/conv2d_38/Conv2D/ReadVariableOp", "shape": [3, 3, 64, 64], "dtype": "float32", "quantization": {"dtype": "uint8", "min": -0.5880742629369099, "scale": 0.004941800528881596, "original_dtype": "float32"}}, {"name": "model/tfc3_4/sequential_9/tf_bottleneck_7/tf_conv_38/conv2d_38/BiasAdd/ReadVariableOp", "shape": [64], "dtype": "float32", "quantization": {"dtype": "uint8", "min": -1.8161831799675436, "scale": 0.017463299807380227, "original_dtype": "float32"}}, {"name": "model/tf_upsample/resize/size", "shape": [2], "dtype": "int32"}, {"name": "model/tf_concat/concat/axis", "shape": [], "dtype": "int32"}, {"name": "model/tfc3_4/tf_conv_35/conv2d_35/Conv2D/ReadVariableOp", "shape": [1, 1, 253, 64], "dtype": "float32", "quantization": {"dtype": "uint8", "min": -0.7429384568158318, "scale": 0.005159294838998832, "original_dtype": "float32"}}, {"name": "model/tfc3_4/tf_conv_35/conv2d_35/BiasAdd/ReadVariableOp", "shape": [64], "dtype": "float32", "quantization": {"dtype": "uint8", "min": -1.84979113036511, "scale": 0.013804411420635149, "original_dtype": "float32"}}, {"name": "model/tfc3_4/concat/axis", "shape": [], "dtype": "int32"}, {"name": "model/tfc3_4/tf_conv_36/conv2d_36/Conv2D/ReadVariableOp", "shape": [1, 1, 128, 120], "dtype": "float32", "quantization": {"dtype": "uint8", "min": -1.1064599803849762, "scale": 0.007960143743776807, "original_dtype": "float32"}}, {"name": "model/tfc3_4/tf_conv_36/conv2d_36/BiasAdd/ReadVariableOp", "shape": [120], "dtype": "float32", "quantization": {"dtype": "uint8", "min": -4.255629999497358, "scale": 0.028754256753360526, "original_dtype": "float32"}}, {"name": "model/tf_conv_39/conv2d_39/Conv2D/ReadVariableOp", "shape": [1, 1, 120, 64], "dtype": "float32", "quantization": {"dtype": "uint8", "min": -0.9885698409641489, "scale": 0.008037153178570317, "original_dtype": "float32"}}, {"name": "model/tf_conv_39/conv2d_39/BiasAdd/ReadVariableOp", "shape": [64], "dtype": "float32", "quantization": {"dtype": "uint8", "min": -2.290833590077419, "scale": 0.01992029208762973, "original_dtype": "float32"}}, {"name": "model/tf_concat_2/concat/axis", "shape": [], "dtype": "int32"}, {"name": "model/tfc3_6/tf_conv_47/conv2d_47/Conv2D/ReadVariableOp", "shape": [1, 1, 127, 60], "dtype": "float32", "quantization": {"dtype": "uint8", "min": -2.1554195880889893, "scale": 0.012604792912801107, "original_dtype": "float32"}}, {"name": "model/tfc3_6/tf_conv_47/conv2d_47/BiasAdd/ReadVariableOp", "shape": [60], "dtype": "float32", "quantization": {"dtype": "uint8", "min": -1.4310449600219726, "scale": 0.014029852549235026, "original_dtype": "float32"}}, {"name": "model/tfc3_6/concat/axis", "shape": [], "dtype": "int32"}, {"name": "model/tfc3_6/tf_conv_48/conv2d_48/Conv2D/ReadVariableOp", "shape": [1, 1, 123, 96], "dtype": "float32", "quantization": {"dtype": "uint8", "min": -3.3617178440093993, "scale": 0.021972012052349017, "original_dtype": "float32"}}, {"name": "model/tfc3_6/tf_conv_48/conv2d_48/BiasAdd/ReadVariableOp", "shape": [96], "dtype": "float32", "quantization": {"dtype": "uint8", "min": -3.146900339687572, "scale": 0.03837683341082405, "original_dtype": "float32"}}, {"name": "model/tf_conv_51/sequential_13/tf_pad_6/Pad/paddings", "shape": [4, 2], "dtype": "int32"}, {"name": "model/tf_conv_51/sequential_13/conv2d_51/Conv2D/ReadVariableOp", "shape": [3, 3, 96, 120], "dtype": "float32", "quantization": {"dtype": "uint8", "min": -0.26969361013057186, "scale": 0.002520501029257681, "original_dtype": "float32"}}, {"name": "model/tf_conv_51/sequential_13/conv2d_51/BiasAdd/ReadVariableOp", "shape": [120], "dtype": "float32", "quantization": {"dtype": "uint8", "min": -1.969533987606273, "scale": 0.013489958819221048, "original_dtype": "float32"}}, {"name": "model/tfc3_3/tf_conv_26/conv2d_26/Conv2D/ReadVariableOp", "shape": [1, 1, 256, 128], "dtype": "float32", "quantization": {"dtype": "uint8", "min": -0.3988533335573533, "scale": 0.0031908266684588264, "original_dtype": "float32"}}, {"name": "model/tfc3_3/tf_conv_26/conv2d_26/BiasAdd/ReadVariableOp", "shape": [128], "dtype": "float32", "quantization": {"dtype": "uint8", "min": -2.19159416030435, "scale": 0.010146269260668287, "original_dtype": "float32"}}, {"name": "model/tfc3_3/sequential_8/tf_bottleneck_6/tf_conv_29/conv2d_29/Conv2D/ReadVariableOp", "shape": [1, 1, 128, 128], "dtype": "float32", "quantization": {"dtype": "uint8", "min": -5.182409419265448, "scale": 0.0336520092160094, "original_dtype": "float32"}}, {"name": "model/tfc3_3/sequential_8/tf_bottleneck_6/tf_conv_29/conv2d_29/BiasAdd/ReadVariableOp", "shape": [128], "dtype": "float32", "quantization": {"dtype": "uint8", "min": -8.687276144588695, "scale": 0.04524622991973279, "original_dtype": "float32"}}, {"name": "model/tfc3_3/sequential_8/tf_bottleneck_6/tf_conv_30/conv2d_30/Conv2D/ReadVariableOp", "shape": [3, 3, 128, 128], "dtype": "float32", "quantization": {"dtype": "uint8", "min": -0.5714701339310291, "scale": 0.0038353700263827457, "original_dtype": "float32"}}, {"name": "model/tfc3_3/sequential_8/tf_bottleneck_6/tf_conv_30/conv2d_30/BiasAdd/ReadVariableOp", "shape": [128], "dtype": "float32", "quantization": {"dtype": "uint8", "min": -1.7567251827202592, "scale": 0.02281461276260077, "original_dtype": "float32"}}, {"name": "model/tfc3_2/tf_conv_16/conv2d_16/Conv2D/ReadVariableOp", "shape": [1, 1, 128, 63], "dtype": "float32", "quantization": {"dtype": "uint8", "min": -0.7143777510699104, "scale": 0.0048268766964183136, "original_dtype": "float32"}}, {"name": "model/tfc3_2/tf_conv_16/conv2d_16/BiasAdd/ReadVariableOp", "shape": [63], "dtype": "float32", "quantization": {"dtype": "uint8", "min": -2.4144465565681457, "scale": 0.012911478912129121, "original_dtype": "float32"}}, {"name": "model/tfc3_2/sequential_6/tf_bottleneck_3/tf_conv_19/conv2d_19/Conv2D/ReadVariableOp", "shape": [1, 1, 63, 64], "dtype": "float32", "quantization": {"dtype": "uint8", "min": -4.517019114774817, "scale": 0.04033052781048943, "original_dtype": "float32"}}, {"name": "model/tfc3_2/sequential_6/tf_bottleneck_3/tf_conv_19/conv2d_19/BiasAdd/ReadVariableOp", "shape": [64], "dtype": "float32", "quantization": {"dtype": "uint8", "min": -3.372380260392731, "scale": 0.027870911242915134, "original_dtype": "float32"}}, {"name": "model/tfc3_2/sequential_6/tf_bottleneck_3/tf_conv_20/conv2d_20/Conv2D/ReadVariableOp", "shape": [3, 3, 64, 63], "dtype": "float32", "quantization": {"dtype": "uint8", "min": -0.2929328609915341, "scale": 0.0023248639761232863, "original_dtype": "float32"}}, {"name": "model/tfc3_2/sequential_6/tf_bottleneck_3/tf_conv_20/conv2d_20/BiasAdd/ReadVariableOp", "shape": [63], "dtype": "float32", "quantization": {"dtype": "uint8", "min": -1.8591481367746987, "scale": 0.010215099652608235, "original_dtype": "float32"}}, {"name": "model/tfc3_2/sequential_6/tf_bottleneck_4/tf_conv_21/conv2d_21/Conv2D/ReadVariableOp", "shape": [1, 1, 63, 64], "dtype": "float32", "quantization": {"dtype": "uint8", "min": -2.3819097584369135, "scale": 0.02226083886389639, "original_dtype": "float32"}}, {"name": "model/tfc3_2/sequential_6/tf_bottleneck_4/tf_conv_21/conv2d_21/BiasAdd/ReadVariableOp", "shape": [64], "dtype": "float32", "quantization": {"dtype": "uint8", "min": -3.1383177214977787, "scale": 0.023420281503714765, "original_dtype": "float32"}}, {"name": "model/tfc3_2/sequential_6/tf_bottleneck_4/tf_conv_22/conv2d_22/Conv2D/ReadVariableOp", "shape": [3, 3, 64, 63], "dtype": "float32", "quantization": {"dtype": "uint8", "min": -0.6261009842741723, "scale": 0.004816161417493633, "original_dtype": "float32"}}, {"name": "model/tfc3_2/sequential_6/tf_bottleneck_4/tf_conv_22/conv2d_22/BiasAdd/ReadVariableOp", "shape": [63], "dtype": "float32", "quantization": {"dtype": "uint8", "min": -1.9512788959577974, "scale": 0.01790164124731924, "original_dtype": "float32"}}, {"name": "model/tfc3_2/sequential_6/tf_bottleneck_5/tf_conv_23/conv2d_23/Conv2D/ReadVariableOp", "shape": [1, 1, 63, 64], "dtype": "float32", "quantization": {"dtype": "uint8", "min": -1.1249407450358073, "scale": 0.008458201090494792, "original_dtype": "float32"}}, {"name": "model/tfc3_2/sequential_6/tf_bottleneck_5/tf_conv_23/conv2d_23/BiasAdd/ReadVariableOp", "shape": [64], "dtype": "float32", "quantization": {"dtype": "uint8", "min": -3.1541993075726076, "scale": 0.020888737136242435, "original_dtype": "float32"}}, {"name": "model/tfc3_2/sequential_6/tf_bottleneck_5/tf_conv_24/conv2d_24/Conv2D/ReadVariableOp", "shape": [3, 3, 64, 63], "dtype": "float32", "quantization": {"dtype": "uint8", "min": -0.7282229311325971, "scale": 0.006171380772310144, "original_dtype": "float32"}}, {"name": "model/tfc3_2/sequential_6/tf_bottleneck_5/tf_conv_24/conv2d_24/BiasAdd/ReadVariableOp", "shape": [63], "dtype": "float32", "quantization": {"dtype": "uint8", "min": -1.0825935719059963, "scale": 0.011395721809536803, "original_dtype": "float32"}}, {"name": "model/tfc3_1/tf_conv_8/conv2d_8/Conv2D/ReadVariableOp", "shape": [1, 1, 62, 31], "dtype": "float32", "quantization": {"dtype": "uint8", "min": -0.4178222324333939, "scale": 0.002695627306021896, "original_dtype": "float32"}}, {"name": "model/tfc3_1/tf_conv_8/conv2d_8/BiasAdd/ReadVariableOp", "shape": [31], "dtype": "float32", "quantization": {"dtype": "uint8", "min": -1.9117170221665325, "scale": 0.013275812653934254, "original_dtype": "float32"}}, {"name": "model/tfc3_1/sequential_4/tf_bottleneck_1/tf_conv_11/conv2d_11/Conv2D/ReadVariableOp", "shape": [1, 1, 31, 32], "dtype": "float32", "quantization": {"dtype": "uint8", "min": -2.384616113176533, "scale": 0.019076928905412262, "original_dtype": "float32"}}, {"name": "model/tfc3_1/sequential_4/tf_bottleneck_1/tf_conv_11/conv2d_11/BiasAdd/ReadVariableOp", "shape": [32], "dtype": "float32", "quantization": {"dtype": "uint8", "min": -3.339059523040173, "scale": 0.03210634156769397, "original_dtype": "float32"}}, {"name": "model/tfc3_1/sequential_4/tf_bottleneck_1/tf_conv_12/conv2d_12/Conv2D/ReadVariableOp", "shape": [3, 3, 32, 31], "dtype": "float32", "quantization": {"dtype": "uint8", "min": -0.6490022551779653, "scale": 0.003909652139626297, "original_dtype": "float32"}}, {"name": "model/tfc3_1/sequential_4/tf_bottleneck_1/tf_conv_12/conv2d_12/BiasAdd/ReadVariableOp", "shape": [31], "dtype": "float32", "quantization": {"dtype": "uint8", "min": -2.025204952090394, "scale": 0.027742533590279374, "original_dtype": "float32"}}, {"name": "model/tfc3_1/sequential_4/tf_bottleneck_2/tf_conv_13/conv2d_13/Conv2D/ReadVariableOp", "shape": [1, 1, 31, 32], "dtype": "float32", "quantization": {"dtype": "uint8", "min": -1.10514551003774, "scale": 0.009286937059140674, "original_dtype": "float32"}}, {"name": "model/tfc3_1/sequential_4/tf_bottleneck_2/tf_conv_13/conv2d_13/BiasAdd/ReadVariableOp", "shape": [32], "dtype": "float32", "quantization": {"dtype": "uint8", "min": -2.794406853470148, "scale": 0.022535539140888287, "original_dtype": "float32"}}, {"name": "model/tfc3_1/sequential_4/tf_bottleneck_2/tf_conv_14/conv2d_14/Conv2D/ReadVariableOp", "shape": [3, 3, 32, 31], "dtype": "float32", "quantization": {"dtype": "uint8", "min": -0.847249095580157, "scale": 0.006418553754395129, "original_dtype": "float32"}}, {"name": "model/tfc3_1/sequential_4/tf_bottleneck_2/tf_conv_14/conv2d_14/BiasAdd/ReadVariableOp", "shape": [31], "dtype": "float32", "quantization": {"dtype": "uint8", "min": -1.0199101233014873, "scale": 0.019243587232103534, "original_dtype": "float32"}}, {"name": "model/tfc3/tf_conv_2/conv2d_2/Conv2D/ReadVariableOp", "shape": [1, 1, 30, 14], "dtype": "float32", "quantization": {"dtype": "uint8", "min": -1.1660819558536306, "scale": 0.0060733435200709925, "original_dtype": "float32"}}, {"name": "model/tfc3/tf_conv_2/conv2d_2/BiasAdd/ReadVariableOp", "shape": [14], "dtype": "float32", "quantization": {"dtype": "uint8", "min": -0.08155493455774644, "scale": 0.010194366819718305, "original_dtype": "float32"}}, {"name": "model/tfc3/sequential_2/tf_bottleneck/tf_conv_5/conv2d_5/Conv2D/ReadVariableOp", "shape": [1, 1, 14, 16], "dtype": "float32", "quantization": {"dtype": "uint8", "min": -3.1949826521032, "scale": 0.024204414031084847, "original_dtype": "float32"}}, {"name": "model/tfc3/sequential_2/tf_bottleneck/tf_conv_5/conv2d_5/BiasAdd/ReadVariableOp", "shape": [16], "dtype": "float32", "quantization": {"dtype": "uint8", "min": -1.2975563376557593, "scale": 0.024482195050108665, "original_dtype": "float32"}}, {"name": "model/tfc3/sequential_2/tf_bottleneck/tf_conv_6/conv2d_6/Conv2D/ReadVariableOp", "shape": [3, 3, 16, 14], "dtype": "float32", "quantization": {"dtype": "uint8", "min": -1.788809245707942, "scale": 0.01233661548764098, "original_dtype": "float32"}}, {"name": "model/tfc3/sequential_2/tf_bottleneck/tf_conv_6/conv2d_6/BiasAdd/ReadVariableOp", "shape": [14], "dtype": "float32", "quantization": {"dtype": "uint8", "min": -2.1417588738834157, "scale": 0.02745844710106943, "original_dtype": "float32"}}, {"name": "model/tf_conv/sequential/tf_pad/Pad/paddings", "shape": [4, 2], "dtype": "int32"}, {"name": "model/tf_conv/sequential/conv2d/Conv2D/ReadVariableOp", "shape": [6, 6, 3, 15], "dtype": "float32", "quantization": {"dtype": "uint8", "min": -24.03733969295726, "scale": 0.1793831320369945, "original_dtype": "float32"}}, {"name": "model/tf_conv/sequential/conv2d/BiasAdd/ReadVariableOp", "shape": [15], "dtype": "float32", "quantization": {"dtype": "uint8", "min": -1.0936230565987382, "scale": 0.019528983153548896, "original_dtype": "float32"}}, {"name": "model/tf_conv_1/sequential_1/tf_pad_1/Pad/paddings", "shape": [4, 2], "dtype": "int32"}, {"name": "model/tf_conv_1/sequential_1/conv2d_1/Conv2D/ReadVariableOp", "shape": [3, 3, 15, 30], "dtype": "float32", "quantization": {"dtype": "uint8", "min": -2.437854430254768, "scale": 0.019348051033768, "original_dtype": "float32"}}, {"name": "model/tf_conv_1/sequential_1/conv2d_1/BiasAdd/ReadVariableOp", "shape": [30], "dtype": "float32", "quantization": {"dtype": "uint8", "min": -3.8521772917579202, "scale": 0.0558286564022887, "original_dtype": "float32"}}, {"name": "model/tfc3/tf_conv_3/conv2d_3/Conv2D/ReadVariableOp", "shape": [1, 1, 30, 13], "dtype": "float32", "quantization": {"dtype": "uint8", "min": -1.1338314799701465, "scale": 0.006830310120302088, "original_dtype": "float32"}}, {"name": "model/tfc3/tf_conv_3/conv2d_3/BiasAdd/ReadVariableOp", "shape": [13], "dtype": "float32", "quantization": {"dtype": "uint8", "min": -0.19628029804603725, "scale": 0.014020021289002661, "original_dtype": "float32"}}, {"name": "model/tfc3/concat/axis", "shape": [], "dtype": "int32"}, {"name": "model/tfc3/tf_conv_4/conv2d_4/Conv2D/ReadVariableOp", "shape": [1, 1, 27, 25], "dtype": "float32", "quantization": {"dtype": "uint8", "min": -0.8986918895852332, "scale": 0.0057241521629632685, "original_dtype": "float32"}}, {"name": "model/tfc3/tf_conv_4/conv2d_4/BiasAdd/ReadVariableOp", "shape": [25], "dtype": "float32", "quantization": {"dtype": "uint8", "min": -4.918098683450736, "scale": 0.04276607550826727, "original_dtype": "float32"}}, {"name": "model/tf_conv_7/sequential_3/tf_pad_2/Pad/paddings", "shape": [4, 2], "dtype": "int32"}, {"name": "model/tf_conv_7/sequential_3/conv2d_7/Conv2D/ReadVariableOp", "shape": [3, 3, 25, 62], "dtype": "float32", "quantization": {"dtype": "uint8", "min": -0.3940128327584734, "scale": 0.0031024632500667197, "original_dtype": "float32"}}, {"name": "model/tf_conv_7/sequential_3/conv2d_7/BiasAdd/ReadVariableOp", "shape": [62], "dtype": "float32", "quantization": {"dtype": "uint8", "min": -2.533391316731771, "scale": 0.03333409627278646, "original_dtype": "float32"}}, {"name": "model/tfc3_1/tf_conv_9/conv2d_9/Conv2D/ReadVariableOp", "shape": [1, 1, 62, 31], "dtype": "float32", "quantization": {"dtype": "uint8", "min": -1.015076623477188, "scale": 0.007748676515093037, "original_dtype": "float32"}}, {"name": "model/tfc3_1/tf_conv_9/conv2d_9/BiasAdd/ReadVariableOp", "shape": [31], "dtype": "float32", "quantization": {"dtype": "uint8", "min": -2.142732062994265, "scale": 0.023290565902111576, "original_dtype": "float32"}}, {"name": "model/tfc3_1/concat/axis", "shape": [], "dtype": "int32"}, {"name": "model/tfc3_1/tf_conv_10/conv2d_10/Conv2D/ReadVariableOp", "shape": [1, 1, 62, 60], "dtype": "float32", "quantization": {"dtype": "uint8", "min": -0.578170300581876, "scale": 0.004159498565337237, "original_dtype": "float32"}}, {"name": "model/tfc3_1/tf_conv_10/conv2d_10/BiasAdd/ReadVariableOp", "shape": [60], "dtype": "float32", "quantization": {"dtype": "uint8", "min": -6.385798645019531, "scale": 0.03734385172526042, "original_dtype": "float32"}}, {"name": "model/tf_conv_15/sequential_5/tf_pad_3/Pad/paddings", "shape": [4, 2], "dtype": "int32"}, {"name": "model/tf_conv_15/sequential_5/conv2d_15/Conv2D/ReadVariableOp", "shape": [3, 3, 60, 128], "dtype": "float32", "quantization": {"dtype": "uint8", "min": -0.7969736106255475, "scale": 0.005141765229842242, "original_dtype": "float32"}}, {"name": "model/tf_conv_15/sequential_5/conv2d_15/BiasAdd/ReadVariableOp", "shape": [128], "dtype": "float32", "quantization": {"dtype": "uint8", "min": -3.413381368973676, "scale": 0.020813301030327292, "original_dtype": "float32"}}, {"name": "model/tfc3_2/tf_conv_17/conv2d_17/Conv2D/ReadVariableOp", "shape": [1, 1, 128, 64], "dtype": "float32", "quantization": {"dtype": "uint8", "min": -1.9274908830137814, "scale": 0.011014233617221607, "original_dtype": "float32"}}, {"name": "model/tfc3_2/tf_conv_17/conv2d_17/BiasAdd/ReadVariableOp", "shape": [64], "dtype": "float32", "quantization": {"dtype": "uint8", "min": -1.969485507291906, "scale": 0.01641237922743255, "original_dtype": "float32"}}, {"name": "model/tfc3_2/concat/axis", "shape": [], "dtype": "int32"}, {"name": "model/tfc3_2/tf_conv_18/conv2d_18/Conv2D/ReadVariableOp", "shape": [1, 1, 127, 127], "dtype": "float32", "quantization": {"dtype": "uint8", "min": -0.4503371388304467, "scale": 0.0033607249166451247, "original_dtype": "float32"}}, {"name": "model/tfc3_2/tf_conv_18/conv2d_18/BiasAdd/ReadVariableOp", "shape": [127], "dtype": "float32", "quantization": {"dtype": "uint8", "min": -2.7856228940627155, "scale": 0.02210811820684695, "original_dtype": "float32"}}, {"name": "model/tf_conv_25/sequential_7/tf_pad_4/Pad/paddings", "shape": [4, 2], "dtype": "int32"}, {"name": "model/tf_conv_25/sequential_7/conv2d_25/Conv2D/ReadVariableOp", "shape": [3, 3, 127, 256], "dtype": "float32", "quantization": {"dtype": "uint8", "min": -0.48827727401957793, "scale": 0.0038447029450360466, "original_dtype": "float32"}}, {"name": "model/tf_conv_25/sequential_7/conv2d_25/BiasAdd/ReadVariableOp", "shape": [256], "dtype": "float32", "quantization": {"dtype": "uint8", "min": -2.4333861855899586, "scale": 0.016898515177708046, "original_dtype": "float32"}}, {"name": "model/tfc3_3/tf_conv_27/conv2d_27/Conv2D/ReadVariableOp", "shape": [1, 1, 256, 128], "dtype": "float32", "quantization": {"dtype": "uint8", "min": -0.7407389949349796, "scale": 0.007054657094618853, "original_dtype": "float32"}}, {"name": "model/tfc3_3/tf_conv_27/conv2d_27/BiasAdd/ReadVariableOp", "shape": [128], "dtype": "float32", "quantization": {"dtype": "uint8", "min": -2.4927466420566335, "scale": 0.011703035878200157, "original_dtype": "float32"}}, {"name": "model/tfc3_3/concat/axis", "shape": [], "dtype": "int32"}, {"name": "model/tfc3_3/tf_conv_28/conv2d_28/Conv2D/ReadVariableOp", "shape": [1, 1, 256, 251], "dtype": "float32", "quantization": {"dtype": "uint8", "min": -0.5660444427939022, "scale": 0.004717037023282519, "original_dtype": "float32"}}, {"name": "model/tfc3_3/tf_conv_28/conv2d_28/BiasAdd/ReadVariableOp", "shape": [251], "dtype": "float32", "quantization": {"dtype": "uint8", "min": -1.4016717854668113, "scale": 0.010157041923672545, "original_dtype": "float32"}}, {"name": "model/tfsppf/tf_conv_31/conv2d_31/Conv2D/ReadVariableOp", "shape": [1, 1, 251, 125], "dtype": "float32", "quantization": {"dtype": "uint8", "min": -0.6018624329099469, "scale": 0.004299017377928192, "original_dtype": "float32"}}, {"name": "model/tfsppf/tf_conv_31/conv2d_31/BiasAdd/ReadVariableOp", "shape": [125], "dtype": "float32", "quantization": {"dtype": "uint8", "min": 0.46740201115608215, "scale": 0.008643095984178431, "original_dtype": "float32"}}, {"name": "model/tfsppf/concat/axis", "shape": [], "dtype": "int32"}, {"name": "model/tfsppf/tf_conv_32/conv2d_32/Conv2D/ReadVariableOp", "shape": [1, 1, 500, 252], "dtype": "float32", "quantization": {"dtype": "uint8", "min": -0.6174334217520321, "scale": 0.00467752592236388, "original_dtype": "float32"}}, {"name": "model/tfsppf/tf_conv_32/conv2d_32/BiasAdd/ReadVariableOp", "shape": [252], "dtype": "float32", "quantization": {"dtype": "uint8", "min": -7.2988184087416705, "scale": 0.04318827460793888, "original_dtype": "float32"}}, {"name": "model/tf_conv_33/conv2d_33/Conv2D/ReadVariableOp", "shape": [1, 1, 252, 126], "dtype": "float32", "quantization": {"dtype": "uint8", "min": -1.2104817231496177, "scale": 0.009311397870381674, "original_dtype": "float32"}}, {"name": "model/tf_conv_33/conv2d_33/BiasAdd/ReadVariableOp", "shape": [126], "dtype": "float32", "quantization": {"dtype": "uint8", "min": -3.4426284014009965, "scale": 0.019899586135265875, "original_dtype": "float32"}}, {"name": "model/tf_concat_3/concat/axis", "shape": [], "dtype": "int32"}, {"name": "model/tfc3_7/tf_conv_53/conv2d_53/Conv2D/ReadVariableOp", "shape": [1, 1, 246, 121], "dtype": "float32", "quantization": {"dtype": "uint8", "min": -0.897493195066265, "scale": 0.006456785576016295, "original_dtype": "float32"}}, {"name": "model/tfc3_7/tf_conv_53/conv2d_53/BiasAdd/ReadVariableOp", "shape": [121], "dtype": "float32", "quantization": {"dtype": "uint8", "min": -0.7439661755281337, "scale": 0.008856740184858734, "original_dtype": "float32"}}, {"name": "model/tfc3_7/concat/axis", "shape": [], "dtype": "int32"}, {"name": "model/tfc3_7/tf_conv_54/conv2d_54/Conv2D/ReadVariableOp", "shape": [1, 1, 243, 154], "dtype": "float32", "quantization": {"dtype": "uint8", "min": -2.3141268290725407, "scale": 0.016648394453759287, "original_dtype": "float32"}}, {"name": "model/tfc3_7/tf_conv_54/conv2d_54/BiasAdd/ReadVariableOp", "shape": [154], "dtype": "float32", "quantization": {"dtype": "uint8", "min": -3.127505364137537, "scale": 0.02950476758620318, "original_dtype": "float32"}}, {"name": "model/tf_detect/tf_conv2d_2/conv2d_59/Conv2D/ReadVariableOp", "shape": [1, 1, 154, 99], "dtype": "float32", "quantization": {"dtype": "uint8", "min": -0.7650620404411764, "scale": 0.005204503676470588, "original_dtype": "float32"}}, {"name": "model/tf_detect/tf_conv2d_2/conv2d_59/BiasAdd/ReadVariableOp", "shape": [99], "dtype": "float32", "quantization": {"dtype": "uint8", "min": -4.205828737745098, "scale": 0.018527879901960784, "original_dtype": "float32"}}, {"name": "model/tf_detect/Reshape_4/shape_1", "shape": [4], "dtype": "int32"}, {"name": "model/tf_detect/strided_slice_23/stack", "shape": [2], "dtype": "int32"}, {"name": "model/tf_detect/strided_slice_23/stack_1", "shape": [2], "dtype": "int32"}, {"name": "model/tf_detect/strided_slice_23/stack_2", "shape": [2], "dtype": "int32"}, {"name": "model/tf_detect/concat_2/axis", "shape": [], "dtype": "int32"}, {"name": "model/tf_detect/Reshape_5/shape_1", "shape": [3], "dtype": "int32"}, {"name": "model/tf_detect/concat_3/axis", "shape": [], "dtype": "int32"}, {"name": "model/tf.__operators__.getitem_2/strided_slice/stack", "shape": [3], "dtype": "int32"}, {"name": "model/tf.__operators__.getitem_2/strided_slice/stack_1", "shape": [3], "dtype": "int32"}, {"name": "model/tf.__operators__.getitem_2/strided_slice/stack_2", "shape": [3], "dtype": "int32"}]}]}